LSTM3_L100_epoch20.pth (torch_old, 903503 bytes, 14 tensors)

rnn.weight_ih_l0 f4 [400, 52]
00000000: fdc4 cd3e ee9c aa3e b2ab 1b3e cc4f 83bd
00000010: 5e05 84bf 0e83 233f 65d1 2d3e 0c35 99be
00000020: 1c81 313e 17fc e6bc 5057 9abb ad4b 173e
00000030: 479d 403e 7b6c 35bb e070 79bf 6d88 2f3d
00000040: cb30 873f f4f8 6abf a8e1 95be fca5 373e
00000050: bfcc de3e 775e 83bd 461e 12bd 8ca1 2d3f
00000060: 9359 85be d50a 02bf 215f 263e c0ef 9d3e
00000070: 6cf3 63be 219b 0e3e 9104 14bd 7ae7 a6be
00000080: 28aa 97be 0ae3 2fbf f556 943e fba3 153e
00000090: 3481 b3bf 3e98 5fbe ce01 0dbe 41a9 31bc
000000a0: 8ddb e93e 8ee1 09bd f4f4 6b3e 9ef7 f13e
000000b0: b77f 023f 8314 f7be 3e90 373e ac57 b73e
000000c0: e232 0abf ae37 c6be bdf0 babe e3c6 84be
000000d0: 8dfa 673e a91a 2c3d 0290 7cbf 2fc1 48bf
000000e0: 6f01 9abd 83a5 8b3e 6a5c 3cbf 40cb 323f
000000f0: d23f 12bf 3582 00bf d187 0c3e 151b eb3e
00000100: 282d 1cbf 9f41 483f 1318 72be da94 17bf
00000110: 4b85 38be d6de 083f 7725 2d3f be41 52bf
00000120: d74e 223f 249b d5be e8eb b5bf a0f7 6e3f
00000130: 564b 5f3e 9b3d 1c3f 8e29 0d3f 927c 51be
00000140: bc1b 24bf 15d9 f13d ad03 efbe 82e0 403e
00000150: 3971 57bd 086f c93f a27c 1cbf 8c9c 77be
00000160: 1268 aebe 05b3 153f c8d2 c53f 455b 28be
00000170: 2cc7 15bf 58d6 453f c08e c23e 8c7f 083f
00000180: 107e bebe 5819 88bf 51b8 86bf c92c 043f
00000190: fc33 66bc 6649 883f 0c24 94be dce5 1a3e
000001a0: 0dc5 f13e 79af d93d f351 efbe d1de 223e
000001b0: 7540 863f 960f bcbd 57cd 8a3b 25f0 eebe
000001c0: da8b 333f ed7e a83e 8f5e a9bf 91f7 4cbe
000001d0: b37e dcbe 64e4 c93f b606 683e cbd1 a63d
000001e0: 07ca 3f3f 515d 553f 55d2 823f 9958 ddbe
000001f0: 0b87 403f 85ff a5bf 1583 edbe 3560 0abf
00000200: bdb8 edbd 2c1d 603f 9a99 e43d 91cd 98be
00000210: cef5 d8be 1862 01bf 8450 213e 391c c0be
00000220: 275d a5bc f2c9 58be 32bc 8e3d 4d0a ed3e
00000230: 7303 2c3f 9fee 0abf 852f 3abf 8097 5abe
00000240: fd1c 3f3f 510c 38bf 09d0 c33d 0bba 073f
00000250: 3109 803f 9955 1dbf 3d80 0d3f 5699 69be
00000260: 4bdf 3b3e b3b1 583f a291 90be c095 83bf
00000270: 7bb2 11bf a4e9 5bbe 7170 2f3e 9148 463e
00000280: 091a 8ebd 4a39 5b3e e996 313f e36f 61be
00000290: bd08 533f 1359 e63e ab8d 843f 6245 563e
000002a0: 51e4 a43e cce1 f3be cc43 2bbe 853b 4a3e
000002b0: 0c25 2640 ced7 2cbe 18a0 58bc ffa8 6dbe
000002c0: 225f 0dbf 7911 5b3d 346b afbe 0c9e e0bd
000002d0: 75db aabe e12b 053f f752 3e3b f528 6bbe
000002e0: 89cb 72be 0d98 273e 480f 45be e04b e7be
000002f0: 63e4 26be b75a ee3c 8ee1 7ebe 66fd 74be
00000300: 54f2 4a3d 02bc 97bc 0e97 71be 7165 843f
00000310: c0b9 c43e b4a6 51bf 0d51 d63e 65a1 4d3d
00000320: e16c d3be 46e2 d2be b719 3ebe de7b 03bf
00000330: bc3f 46bd 433c 47be fb48 533f 0ff4 8940
00000340: a56a 233f bb11 d43d e20c 6d3e 9905 2b3f
00000350: 5daf b83f a451 0c3f 528e 363f 1ede 71bf
00000360: fc20 173f 20e9 77be e1df c9be 822c 143e
00000370: 9f29 1c3f c9c6 4bbe f2eb f2be a321 173f
00000380: 67d7 64bf fbdf 3dbe 8f1c 213f d81e 0a3f
00000390: d9c1 f63e 684b 5b3f 3760 633d 6824 d2be
000003a0: d1ee 69be 1de3 99bf bf01 4abe b095 afbe
000003b0: 4c05 3b3e 9d1c 543e c6e5 593e 2e3f b5be
000003c0: 430d 0bbf 359f b5be dc47 b03d 7fee 8f3f
000003d0: 50f6 233f 64bc 4b3e 1ab6 aa3f e0ce 65bf
000003e0: 899b 623d 09c8 49bf ee31 b43e 675b 813e
000003f0: cbc6 4fbf c257 06c0 b10e ea3d 4e2b 86bc
0.40189353 0.33322853 0.15202215 -0.064117044 -1.0314138 0.6387185 0.16974409 -0.29923284
0.17334408 -0.028196378 -0.0047101155 0.14774962 0.18809997 -0.0027683068 -0.9743786 0.042854715
1.0561765 -0.9178612 -0.29273725 0.17934412 0.43515584 -0.06414502 -0.035673402 0.67824626
-0.26044902 -0.5079778 0.16247226 0.30846977 -0.22260827 0.13926364 -0.036137167 -0.32598478
-0.29622006 -0.6870581 0.28972593 0.14613335 -1.4023805 -0.2183542 -0.1377022 -0.010843576
0.45675316 -0.03366237 0.23042661 0.4725923 0.5097613 -0.48257837 0.17926118 0.35809076
-0.5398389 -0.38714355 -0.36511794 -0.2593299 0.22654171 0.042017613 -0.9865724 -0.78419775
-0.07519805 0.27274713 -0.7357851 0.69841385 -0.5712863 -0.5019868 0.13723685 0.459191
-0.610064 0.7822513 -0.23641996 -0.59211504 -0.18019597 0.5346502 0.6763529 -0.82131565
0.6340155 -0.41719925 -1.4212618 0.93346596 0.21806082 0.610315 0.5514153 -0.20457676
-0.6410482 0.11808983 -0.46682492 0.18835643 -0.052598212 1.5737009 -0.61127675 -0.24180812
-0.34063774 0.5847629 1.545495 -0.16441067 -0.5850704 0.7728019 0.37999535 0.5331962
-0.37205553 -1.0632734 -1.0524999 0.51630837 -0.01405048 1.06474 -0.28933752 0.15126747
0.4722065 0.10629172 -0.4674221 0.1590531 1.0488421 -0.0918266 0.004235904 -0.4666759
0.7013527 0.32909337 -1.3231982 -0.20016314 -0.43065414 1.5772824 0.2265881 0.081454836
0.74917644 0.83345515 1.0220438 -0.43231657 0.7520606 -1.2968603 -0.4638907 -0.5405305
-0.11607502 0.8754451 0.1116211 -0.29844335 -0.42375034 -0.50540304 0.1575337 -0.37521532
-0.02018602 -0.21170786 0.06969489 0.4629692 0.67192763 -0.54270357 -0.7272876 -0.21346855
0.7465361 -0.71893793 0.09561164 0.53018254 1.0002805 -0.61458737 0.552738 -0.228124
0.18346898 0.8464615 -0.2823611 -1.0280075 -0.56912965 -0.21475846 0.17132737 0.1936362
-0.069385596 0.21408573 0.69370896 -0.22015338 0.8243521 0.44989833 1.0355734 0.20924905
0.32205442 -0.47633207 -0.16725081 0.19749267 2.5960112 -0.16879198 -0.013221763 -0.23208998
-0.55223286 0.05348346 -0.34261477 -0.10967645 -0.33370557 0.5202008 0.002904115 -0.22964843
-0.23710455 0.16366597 -0.1924411 -0.45175076 -0.1629806 0.02909599 -0.2489073 -0.23924789
0.04954751 -0.018522266 -0.23592779 1.0343457 0.38422966 -0.81894994 0.41858712 0.050202746
-0.41294006 -0.41188258 -0.18564497 -0.5136088 -0.048400626 -0.19456582 0.82533234 4.3110423
0.638346 0.10354944 0.23149446 0.66805416 1.4428517 0.54812074 0.71310914 -0.9447955
0.59034705 -0.24210024 -0.3942862 0.14470103 0.6100101 -0.1990005 -0.47445637 0.590357
-0.8939118 -0.18542473 0.629342 0.53953314 0.4819477 0.85661936 0.05551168 -0.410434
-0.22845007 -1.2022434 -0.19727229 -0.3429389 0.1826374 0.2071404 0.21279058 -0.35399765
-0.5431711 -0.35473028 0.08607456 1.1244658 0.6404772 0.19896084 1.3336823 -0.8976879
0.05532411 -0.78820854 0.35194343 0.25265047 -0.8116271 -2.0991063 0.114285834 -0.016378071

rnn.weight_hh_l0 f4 [400, 100]
00000000: 789a 27be 5004 dd3e 16ac 1ebe be9d 4dbe
00000010: 450d 78be f7c0 04be 514b cf3e 5e6e acbe
00000020: c749 853e 42cb 36bf 54ab be3e dc29 093f
00000030: 4b11 a83f 8842 23bf 8387 36bf 4113 24bf
00000040: e5e8 53bf 2962 573f b1ab 0f3e 237c 743c
00000050: 2234 233e ee65 c3be d970 83be 6cf2 29bf
00000060: e4d9 ed3d 7854 63be de28 723d 5174 7ebf
00000070: 9a03 03ba 6425 b2be cb13 c93e 635b 3dbf
00000080: f887 5fbf ad9d 393e e7c6 6dbf f56d 05bd
00000090: 7577 a8be 09c7 023e d678 80bf bd51 ca3c
000000a0: 3ce1 0b3f 8c9a e6bc 7d93 bc3e 3e80 3bbe
000000b0: d750 053f 99cd 1cbe 7573 683f 6f0c 80be
000000c0: 6a69 473f 7538 c9be 99df 19bf f9c9 6d3f
000000d0: 303e b03f 91ff dabe 569d 82be 120f 0e3f
000000e0: 54fd 223f fb78 4dbf 82dc 313f b036 ddbe
000000f0: d213 a2be 5ae8 aa3d 1b02 9cbe 8123 ad3e
00000100: 2990 20bf 662f 99be 8ff3 d13e 9c4f 5a3e
00000110: ae98 8abe f8f1 193e eb2e a0be fe1f aa3e
00000120: 4f20 2f3e 1c92 eb3e bd5e 2f3f 5650 97be
00000130: c80c 1e3f cbf7 0dbf 5edf 2a3e ab92 d8bd
00000140: 42e8 863d d6f6 11bf 07ae 233e 2d21 2b3f
00000150: abaa 083f 396c 42be f288 4c3d a8cf 853e
00000160: 1ea4 603e f527 25bf f407 343f 9813 9cbc
00000170: 37d0 8a3f 26b3 ecbd 5687 8f3f 4d98 af3d
00000180: 60d4 283d 9d6f 77be 6096 ab3f e712 94bf
00000190: 3b19 b63e 5e3a 0abf 69dd 00bf 018c 283f
000001a0: df03 4f3e 611f d03e adea d7be e7d6 5abf
000001b0: 60d7 903e d719 a23f 69be 3abf aeeb 22be
000001c0: 3650 20bf b4ea 4dbf 5b90 2a3e ef8f 8fbe
000001d0: d173 463f cb68 403f 7885 fe3e 25b0 873f
000001e0: 82ac 903e e93b 08be 4db6 34bd 3bce d0be
000001f0: 0c59 65bf 76c5 69be 32ff e73e 0f3a b13e
00000200: e808 073f 0f65 35be 09bc e93e 77ee 18be
00000210: 0efd 53bf 5bcb c5bd 9a28 a7be b41b 03bf
00000220: c60e 10bf f90f babf 23ea 58bf d759 f6be
00000230: 09ae 08bf a790 9a3f 9050 1c3e 9b0b 6bbf
00000240: 9730 c6be 6537 b23e 23f8 e9be 9b78 873f
00000250: 349e a73f 02ed 6f3e 5e79 2dbd 3ee9 adbd
00000260: 86f8 983e b197 ddbe f5e7 efbe 2ba5 833f
00000270: 6cd0 e43e b4f5 bfbe c38a 1ebf 169e 7fbf
00000280: e36a 76bf cf27 13bd f6e6 e13e e984 1bbf
00000290: 1bf8 cd3e 51eb 33be 23f0 3abf eeca 173e
000002a0: b903 c03d c9d3 76be 1625 663f c545 efbe
000002b0: b57f 0ebe 96d4 21bf a3f9 63bf bf19 7b3f
000002c0: b49e 68bf d69a 4c3f 2283 fabe e392 f13e
000002d0: d876 4dbf 9c6e 263f fd14 9f3e 9ce3 0640
000002e0: 96cc af3e a190 5fbf 0f3b bf3f c24a a1be
000002f0: f063 0bbf 566e eabe 213f bf3d 3248 433f
00000300: 3eb6 9bbf 27c7 313f 0be0 873f ffed 87bf
00000310: b8cc 1bbe 254d af3e 6e6a 12be 0981 94be
00000320: f4ce 24be 229a 813f 5994 453d ff5f ba3c
00000330: 31f5 32bf 29f6 d63f c093 d7bb b399 8fbf
00000340: 98ea d93e 14d0 083f 5eea 25be ce8d d3bd
00000350: d205 f73d 4e49 1c3f 3bde 08be f50e e83e
00000360: b079 1abf 6aff 1bbd 2fb5 fe3e e0eb 833e
00000370: 6f45 353f 9aa2 063f 62f2 3b3f ad28 3a3f
00000380: 199c 1a3f 5df0 133f 87d3 a9be 87a5 2f3e
00000390: ec33 e33d bc9e 883e 6f65 8fbf 85e3 5c3d
000003a0: d684 05bf a978 b83e bf3c f03e 3f31 f9bd
000003b0: 6e63 983e 8c04 083f b032 9cbf dbbc dc3e
000003c0: 035e 1cbf 64d0 70bd d6f3 9c3d e4d9 87bf
000003d0: b206 83be 87a9 933e 3886 cdbe 777b 0c3f
000003e0: 5c0e 5a3e efab f5be 9589 3a3e 0a9b 07bf
000003f0: 724b bd3e 25ff dd3d bd99 413f a111 cb3d
-0.16367519 0.43167353 -0.15495333 -0.20079705 -0.24223812 -0.12964235 0.4048715 -0.33677953
0.2603285 -0.71403897 0.37240088 0.535795 1.3130277 -0.63773394 -0.71300524 -0.6409188
-0.82777244 0.84134156 0.14030339 0.014922175 0.15937856 -0.38163704 -0.25672033 -0.6638553
0.11613825 -0.22200191 0.059121005 -0.99396235 -0.000499779 -0.34794152 0.39272913 -0.7396757
-0.87316847 0.18126555 -0.92881626 -0.032575566 -0.32903638 0.12771238 -1.0036876 0.024697179
0.54640555 -0.028149866 0.36831275 -0.1831064 0.52076477 -0.15312804 0.90801173 -0.25009486
0.77895224 -0.39300886 -0.6010681 0.9288631 1.3768978 -0.42773107 -0.25510663 0.55491745
0.636678 -0.80262727 0.69477093 -0.43205786 -0.31655747 0.08345099 -0.30470356 0.3381615
-0.6271997 -0.29918975 0.41006133 0.21319431 -0.2706961 0.1503371 -0.31285796 0.33227533
0.17102169 0.4600991 0.68503934 -0.2955348 0.6173825 -0.5545623 0.1668677 -0.1057485
0.065872684 -0.57017267 0.15984355 0.668475 0.5338542 -0.18986596 0.04993529 0.26134992
0.21937606 -0.64514095 0.70324636 -0.019052312 1.0844792 -0.11557607 1.1213176 0.08573971
0.04121816 -0.24163671 1.3405266 -1.1568269 0.35566124 -0.5399531 -0.50337845 0.6583863
0.2021632 0.4064894 -0.4217123 -0.85484165 0.28289318 1.2664136 -0.7294679 -0.15910217
-0.6262239 -0.80436254 0.1665663 -0.280395 0.7752047 0.751599 0.49711204 1.060063
0.28256613 -0.13304104 -0.044119168 -0.4078234 -0.89589 -0.22829232 0.45311886 0.34614608
0.52747965 -0.17714332 0.45651272 -0.14934717 -0.82808006 -0.096579276 -0.32648164 -0.51214147
-0.5627254 -1.4536124 -0.84732264 -0.48115417 -0.53390557 1.2075394 0.15265107 -0.91814584
-0.38708946 0.34807888 -0.45697126 1.0583681 1.3095155 0.23430255 -0.042352073 -0.08491753
0.29877108 -0.43279794 -0.46856657 1.028478 0.44690263 -0.37492144 -0.61930484 -0.99850595
-0.96256846 -0.035926636 0.44121522 -0.6074968 0.40228352 -0.17570235 -0.7302267 0.14823505
0.0937571 -0.24104227 0.8990034 -0.46732917 -0.13915904 -0.63215005 -0.8905279 0.9808616
-0.9086716 0.7992376 -0.4892817 0.47182378 -0.80259466 0.65012527 0.310707 2.1076422
0.34335774 -0.8733006 1.4939898 -0.31502348 -0.5444937 -0.45787305 0.09338213 0.76282036
-1.2164991 0.6944451 1.0615247 -1.0619506 -0.15214813 0.34238544 -0.14298412 -0.29004696
-0.16094571 1.0125163 0.04823718 0.022750853 -0.6990538 1.6793872 -0.0065788925 -1.121878
0.42561793 0.534425 -0.16202685 -0.103297815 0.12061657 0.61049354 -0.13366024 0.4532391
-0.6034193 -0.03808538 0.49747607 0.25765896 0.7080907 0.5259186 0.7341672 0.72718316
0.60394436 0.5778864 -0.33169195 0.17152987 0.11093888 0.26683605 -1.120283 0.053927917
-0.52155817 0.36029556 0.46921346 -0.12167596 0.2976336 0.5313194 -1.2202969 0.43112835
-0.6108095 -0.058792487 0.076636955 -1.061337 -0.25591046 0.28840277 -0.40141463 0.5487589
0.2129454 -0.47982737 0.18216546 -0.52970946 0.36971623 0.108396806 0.7562521 0.09915472

rnn.bias_ih_l0 f4 [400]
00000000: 7ff2 ecbe 1afd b5be e673 85bf 81f7 acbf
00000010: b067 6fbf 5323 68bf c0fa 95bf f1c8 80bf
00000020: 3556 53bf 8ff2 89be a06d 8e3f f87b e0be
00000030: 0dbb f23e 13c0 a1bf f4d9 aebf 0911 7cbe
00000040: a898 bebf d193 21be ac9c 603f c652 c03e
00000050: 755a 0ebf 4735 a9bf 997d 8ebf 2129 bfbd
00000060: 9f00 06bf 3344 2f3e 8f59 94bf 8c21 223f
00000070: 0184 e53d 6ffa c7bd b090 20bf e9b5 083f
00000080: 2b76 9cbf c400 57bf ceef f6bb 0afc 75bf
00000090: 1dcf bc3e 030e 353e 0700 fb3e 462f 1e3e
000000a0: 311a 3cbf bf78 613f 28c9 e5be cbb3 8bbe
000000b0: 87d4 bcbc c026 e03b 4002 043f 5459 513d
000000c0: d5af 32bf f8e8 e3be 2e0a 00bf e998 643f
000000d0: 9156 a5bd f3bf b43d 12c8 c4be 734f 81bf
000000e0: d20a 933d 8d78 d03e ffe7 683e 9012 79bf
000000f0: bfe8 debe ff29 243f 0d3f 01bf 6603 18bf
00000100: e92f 07c0 3fdb 16bf 9771 a8be 9b6f df3e
00000110: b5f7 d2be e69a 80bf 7b2e 7cbf 33df 59be
00000120: d21c e1be f343 aebf 0b4f 69bf 38a2 8cbf
00000130: f2e7 91bf ded4 e9be f7e4 3abf 0b2b f93e
00000140: 9339 c5be fc67 0bbf d70f 6bbf db78 38bf
00000150: 5902 a43d d722 e8be bab6 fa3e 3f5d 39be
00000160: cff6 33be 304b bbbe b198 11be de28 87bf
00000170: 20ef 2d3d 4485 6abf 2e3f 88bf f9a8 23bf
00000180: 9822 e1be 589f 093f 7160 a8be 16d3 16bf
00000190: ef94 4abf f99c e4bd 7cbc 02bf aea1 00bd
000001a0: d376 163e 5f09 07bf b9c1 e93d 532c a5bf
000001b0: a47a 17bf e8eb fbbe 0385 b13d 24c8 34be
000001c0: 3115 0fbf 95c2 0cbf 66df 0abf 54df 6ebf
000001d0: 176f f0be a2b9 75bd 1198 50be 18a8 1dbe
000001e0: b03e b9be dc5d 153e 8fe7 57bf 65e9 d8be
000001f0: 645f 5fbe 4bee 8fbf 94f2 16bf aeea 08bf
00000200: dce7 7abe 98be 36bf 17b6 28be 890d 2bbf
00000210: c293 f7be badc 96be 106e bebd 9ad0 55bf
00000220: ac12 05bf d164 53bf e2fa 73bf 4ba8 46bf
00000230: 3a11 ffbe e57b c3be 8318 21bf 55d2 02be
00000240: b2fa 75bf 4222 69be 1788 1abf e8d8 9fbf
00000250: 6ac1 b0bf 3007 83bf 34d6 b2be 7139 1bbf
00000260: 75a4 1cbf 62d1 c7be c22f 5ebf 30ef 8ebf
00000270: b12f 6abf a8e9 6abf 943e d4bf bcd4 3ebf
00000280: 2b2c 37bf 8fed 3fbf 4522 94be 8789 75bf
00000290: 27bd edbe 1f05 07bc f5a1 a9be cc39 adbe
000002a0: b072 d1be 0809 51bf c3a3 57bf 3664 143d
000002b0: fb07 7ebf 3aeb 813e 6268 e13d ebd8 31bf
000002c0: 5506 f1be fdc2 adbf a951 98bd ccb8 52bc
000002d0: 88df 70bf 79c0 87bf 28bc b5be b654 4cbf
000002e0: fdca b9be 2332 41bf ae99 89be 25cd 67bf
000002f0: 8c6a 50be f2af 89be 1721 4bbf c18f 153e
00000300: 8221 4bbf 41d3 09bf 9fc0 0abf c4d7 c7be
00000310: 3686 07bf 62e8 0dbd 30c8 28bf 6eaa 0fbf
00000320: 805b bc3f 36c4 d73e 3eeb 07bd 5755 c63e
00000330: 18cf 323f dd09 2e3f b1cb acbe dcab 3f3f
00000340: 59ab 97be 3215 e03f b5c4 24bf b24c a2be
00000350: 5bc5 753f c810 bb3f be66 99bd fbd7 ab3e
00000360: 411c 00be d649 f2be 23c4 3c3e caa4 56bd
00000370: 13d6 873f 5d64 71be 31fa 5b3e 7311 9d3d
00000380: 2a5c 0dbf 0bb2 e43d 13ae c9bd 54c1 9b3e
00000390: cf70 f93e 7d0d bcbf af7a dd3d 19dd c13f
000003a0: fe76 533f bcc2 1e3e 8470 1b3e abf6 7c3f
000003b0: a997 6a3f 6d97 993f 9cb5 2f3f 3367 06bf
000003c0: 507a d63e 6942 07c0 a112 e5be 4918 49bf
000003d0: fb51 0d3f b5bf 48bf e1d9 82bf 2226 7fbf
000003e0: d89b 1ebf b99a 02bf 2d9f 8b3f 8fb6 69be
000003f0: b5a7 08bf 1d50 37bf 9e80 973e f1c7 863e
-0.4627876 -0.35544664 -1.0425994 -1.3513032 -0.9351759 -0.906789 -1.1717148 -1.0061322
-0.82553416 -0.2694287 1.1127205 -0.4384458 0.47408333 -1.2636741 -1.3660264 -0.24615873
-1.4890337 -0.15779044 0.8773906 0.3756315 -0.55606776 -1.3219384 -1.1132079 -0.093340166
-0.523447 0.1711586 -1.1589831 0.6333244 0.11206818 -0.09764563 -0.62720776 0.5340257
-1.2223562 -0.83985543 -0.007535911 -0.96087706 0.36876765 0.17681126 0.49023458 0.15447721
-0.73477465 0.8807487 -0.44880033 -0.2728561 -0.02305056 0.006840557 0.51565933 0.05111058
-0.6979955 -0.4451368 -0.5001553 0.8929582 -0.08073152 0.08825674 -0.38433892 -1.0102371
0.07179798 0.40716973 0.2274475 -0.9729395 -0.43536946 0.6412658 -0.5048683 -0.59380186
-2.1122992 -0.58928293 -0.32899162 0.43639836 -0.4120461 -1.0047271 -0.98508424 -0.2127655
-0.439673 -1.3614486 -0.91136235 -1.0987005 -1.1398909 -0.45670217 -0.7300562 0.48665652
-0.38520488 -0.5445554 -0.91821045 -0.7205941 0.0800826 -0.4533908 0.48967534 -0.18101977
-0.17574619 -0.365808 -0.14218403 -1.0559347 0.042464375 -0.916096 -1.0644281 -0.63929707
-0.43971705 0.53758764 -0.3288608 -0.5891584 -0.79133505 -0.11162753 -0.51068854 -0.03140419
0.14693765 -0.52748674 0.11413903 -1.2904152 -0.5917151 -0.4920342 0.08667948 -0.17654473
-0.5589171 -0.5498441 -0.5424713 -0.9330952 -0.46959755 -0.059991486 -0.20370509 -0.15396154
-0.3618064 0.14586586 -0.84337705 -0.42365566 -0.21813732 -1.1244596 -0.58963895 -0.5348309
-0.2450251 -0.71384573 -0.16475712 -0.6681753 -0.48354918 -0.29465276 -0.092983365 -0.83521426
-0.51981616 -0.8257571 -0.9530469 -0.77600545 -0.4981783 -0.38180462 -0.62928027 -0.12775548
-0.96085656 -0.22766975 -0.60363907 -1.248807 -1.3809025 -1.0236568 -0.3492905 -0.60634524
-0.6118844 -0.39026934 -0.8679162 -1.1166744 -0.9147902 -0.9176278 -1.6581597 -0.74543357
-0.7155177 -0.7497186 -0.28932396 -0.95912975 -0.46433374 -0.008240967 -0.33131376 -0.33833158
-0.40907812 -0.81654406 -0.84234256 0.03622838 -0.9923093 0.25374776 0.110062376 -0.69471616
-0.47075143 -1.3575131 -0.074374504 -0.012861442 -0.9409108 -1.0605613 -0.35495114 -0.7981676
-0.3628768 -0.7546713 -0.2687506 -0.905474 -0.20353144 -0.26892048 -0.79347366 0.14605619
-0.79348004 -0.5383797 -0.54200166 -0.39031804 -0.52939165 -0.034645446 -0.6593046 -0.5611943
1.4715424 0.42141885 -0.03318333 0.38736984 0.6984725 0.679838 -0.33749154 0.7487161
-0.29622915 1.7506468 -0.6436265 -0.3169914 0.96004266 1.4614496 -0.074903 0.33563218
-0.12510778 -0.47321957 0.18434195 -0.05240325 1.0612205 -0.23573442 0.21482159 0.07669344
-0.55218756 0.111667715 -0.09847655 0.30420935 0.4871888 -1.4691616 0.10814416 1.5145599
0.8260344 0.15503973 0.1517964 0.98813885 0.91637665 1.1999336 0.6863649 -0.5250122
0.41890192 -2.1134284 -0.44740775 -0.7855268 0.5520322 -0.7841752 -1.0222741 -0.9966756
-0.6195655 -0.5101734 1.0907952 -0.22823547 -0.533809 -0.7160662 0.29590315 0.26324418

rnn.bias_hh_l0 f4 [400]
00000000: 4f25 1fbf 5933 28bf f496 2abf 3636 cebf
00000010: 0d96 8abf ff9b 66bf de97 89bf 3e9a 71bf
00000020: c670 61bf 4d3a 68be 256a 793f e527 06bf
00000030: 80b7 4c3f feb6 99bf 25e9 acbf 7296 c6bd
00000040: d7be dfbf fee0 cdbe d343 5e3f 8af0 2b3e
00000050: 4175 babe d819 a0bf e145 abbf 3f6a 26bd
00000060: b001 58bf 811d b73c c3e8 6abf 1080 343f
00000070: 6f0d 933e 52ee cbbd 94c9 3ebf 2b09 833e
00000080: b58d abbf e487 49bf f62d a43c 1ade a5bf
00000090: 7c0d fe3e 0c0d bd3e 5f91 8b3e 8d33 c73d
000000a0: 1e7d 08bf 67ac 3f3f c1ae 7abe 798d babe
000000b0: 9800 31be 66df 183d 937a 523f d058 253e
000000c0: 5fab 60bf bc50 83be e3e2 94be 0b3b 933f
000000d0: 2d8b 563d bfb1 80be f3b5 e3be d0b6 88bf
000000e0: 369d 843e dc25 a03e c6df f53e d7f6 3abf
000000f0: 611f e8be 68dc 023f 2e1a d5be eef1 f2be
00000100: eb17 08c0 46f2 11bf cf45 fabe d816 e53e
00000110: d171 e6be 9cfb 64bf 2a39 92bf cf61 8f3d
00000120: 9fb2 cfbe 33b0 a4bf 5318 12bf daef 83bf
00000130: 33cf 97bf 5a85 87be dcc5 22bf a7f0 663e
00000140: c618 04bf dd27 06bf 8e6d 72bf ce15 30bf
00000150: 2fc6 91bd 8e04 09be 42b3 b13e 4e3b 0ebf
00000160: a36d 193e 8e14 d7be 022d 0fbe 4822 92bf
00000170: 7991 bb3d 9e70 91bf 8941 77bf 2bcb 15bf
00000180: 94d9 59be c259 5c3e 0400 efbd 09eb 10bf
00000190: 6221 16bf 2301 063e 02af 2cbf 8614 abbe
000001a0: dbb8 62bd f102 e8be a9e9 133e 8d39 a1bf
000001b0: bf1b 53bf 83b5 0abf 3e2b 043e fe2a 80be
000001c0: 13f6 a0be 8186 9ebe 0c87 f6be 70e4 4fbf
000001d0: 3b17 f1be e39f f1bd 5534 bbbe 901e 23be
000001e0: 8140 cdbe 3af1 3fbd 58d6 55bf 60c6 ffbe
000001f0: 695e 7cbe 5cfb 8bbf 7d03 14bf 9304 d4be
00000200: 6ea2 8dbe fc8c 0cbf 9016 c9bd f56a 35bf
00000210: 6c63 3abf 9d7e 30bd e6c9 82bd b619 6ebf
00000220: 823f cabe d1fb 89bf 5c86 9fbf 467d 5fbf
00000230: 7759 73be 38c6 73be 65e8 0abf 7662 113e
00000240: 108b 24bf 4174 d9be 946d 21bf 8a5d b8bf
00000250: 7bad 96bf 5494 88bf d17e 0dbf 1f62 e0be
00000260: 039f 01bf 4560 19bf b6aa 2ebf a8c6 66bf
00000270: 02fb 4bbf 0803 9bbf bdad dcbf 3f58 3ebf
00000280: 98f4 36bf d1a9 0cbf 406b 91be 91d7 7cbf
00000290: 92bd cebe bba2 a2bd 10bc b2be c943 89be
000002a0: 7ee0 c9be 3824 66bf 5bc9 45bf 89d2 a2bd
000002b0: 0a7f 75bf 8ed9 cd3e bb57 b33d cd2f bdbe
000002c0: 1f13 3dbf 1996 7ebf 0d12 debd 1a7e ebbd
000002d0: be4d 48bf 3586 8cbf 3b07 ddbe a372 3abf
000002e0: 8dff 6ebe 1678 32bf a779 58be d1bf 8abf
000002f0: 51c0 43be 0124 10be f7c6 94bf 92ec 953e
00000300: bd19 60bf ea61 40be 8198 b3be a314 acbe
00000310: 20ed f1be 1667 8f3d 27eb 50bf 95ef 17bf
00000320: 84da be3f 0593 663e aaf3 dfbd 8caa 043e
00000330: 1195 313f ef30 623f d18f 0dbf 0f71 693f
00000340: 0364 03bf 3f50 ca3f 55f9 36bf 8dbe 3abe
00000350: 7c22 7a3f 91e8 bc3f 7884 5a3e 2f8b 533e
00000360: 3702 3fbd 1263 06bf 08c0 1d3e f14e 94bd
00000370: 257d 8c3f 7dc8 b5be 5ae4 9f3e 8b62 8c3e
00000380: d22f 20bf b218 6e3d 3ccc 9bbe 4c86 1b3f
00000390: fa92 193f 9da5 bebf 120b f33d 2a22 d43f
000003a0: 57cd 0f3f cb8e 3a3e 8f08 3f3e 074c 3d3f
000003b0: e583 5d3f 3dac 9f3f 2693 5c3f 9e1a f3be
000003c0: 36d4 e53e 7879 0bc0 30f2 d2be 7b37 71bf
000003d0: 4834 1b3f 9d58 7ebf a1b5 6fbf 75fd 58bf
000003e0: 7037 39bf 0f69 d5be 7bcb 9e3f f157 bbbe
000003f0: 6353 debe 9884 33bf 9528 de3d e6b6 933e
-0.62166303 -0.6570335 -0.66636586 -1.6110294 -1.0827042 -0.9008178 -1.0749471 -0.9437598
-0.88062704 -0.2267849 0.9742759 -0.52404624 0.799675 -1.200897 -1.350865 -0.09696664
-1.7480115 -0.40210718 0.8682224 0.16790977 -0.36417583 -1.2507887 -1.33807 -0.040628668
-0.84377575 0.022352936 -0.91761416 0.7050791 0.28721187 -0.09957565 -0.74526334 0.25592932
-1.340262 -0.7872298 0.020041447 -1.2958405 0.49619663 0.36924016 0.27259347 0.097266294
-0.53315914 0.7487244 -0.24480726 -0.3643606 -0.17285383 0.037322424 0.82218283 0.1614716
-0.8776149 -0.25647533 -0.2907935 1.1502393 0.052378822 -0.2513561 -0.44474754 -1.068079
0.25901192 0.31278884 0.48022288 -0.730329 -0.4533644 0.51117563 -0.41621536 -0.47450203
-2.1264598 -0.57010305 -0.48881385 0.4474399 -0.4500871 -0.89446425 -1.1423695 0.070010774
-0.40565965 -1.2866272 -0.57068366 -1.0307572 -1.1860107 -0.26468927 -0.6358316 0.22552739
-0.516003 -0.52404577 -0.9469842 -0.6878327 -0.07117879 -0.13380644 0.34707075 -0.5555924
0.1498323 -0.4200787 -0.13982013 -1.1416712 0.09158606 -1.1362493 -0.96584374 -0.58513135
-0.21274406 0.21518615 -0.11669925 -0.56608635 -0.5864469 0.13086371 -0.6745454 -0.33414096
-0.055352073 -0.45314744 0.14444603 -1.2595688 -0.8246421 -0.54183215 0.1290712 -0.250328
-0.3143774 -0.30961993 -0.48149908 -0.8120794 -0.47088036 -0.11798074 -0.36563364 -0.15929627
-0.40088275 -0.04686091 -0.8353019 -0.49956036 -0.2464539 -1.0936084 -0.5781782 -0.4140974
-0.27662987 -0.54902625 -0.098187566 -0.7086633 -0.72807956 -0.043089498 -0.06386165 -0.9300798
-0.39501578 -1.0779973 -1.2462878 -0.8730053 -0.23764597 -0.23806083 -0.54260856 0.14197716
-0.6427469 -0.42471507 -0.6305783 -1.4403546 -1.1771692 -1.0670266 -0.5527163 -0.4382486
-0.5063326 -0.5991252 -0.68229234 -0.90146875 -0.7967988 -1.21103 -1.7240521 -0.743534
-0.7146697 -0.5494662 -0.28402138 -0.9876643 -0.40379006 -0.079411946 -0.34909105 -0.26809528
-0.39429086 -0.89899015 -0.7726037 -0.07950313 -0.9589697 0.40205044 0.08756968 -0.36950532
-0.738573 -0.9944778 -0.10843287 -0.11498661 -0.78243625 -1.0978457 -0.4316958 -0.7283117
-0.23339672 -0.69714487 -0.21140157 -1.0839788 -0.19116332 -0.14076234 -1.1623219 0.2928205
-0.87539274 -0.18787351 -0.3507729 -0.33609495 -0.47251225 0.07002084 -0.81608814 -0.5934995
1.4910436 0.22517021 -0.10935147 0.12955683 0.6936808 0.88355917 -0.5529757 0.9118814
-0.5132448 1.5805739 -0.714742 -0.18236752 0.9770887 1.4758474 0.21339595 0.20658563
-0.04663297 -0.5249492 0.15405285 -0.072416194 1.0975691 -0.35504523 0.31228906 0.27418932
-0.6257297 0.05812902 -0.30429256 0.60751796 0.59989893 -1.4894291 0.11867346 1.6572926
0.561727 0.18218534 0.18655609 0.73944134 0.8652938 1.2474438 0.8616203 -0.47481245
0.44888467 -2.1792889 -0.412004 -0.9422528 0.6062665 -0.99353963 -0.9363652 -0.84761745
-0.72350216 -0.41681716 1.2405847 -0.3659053 -0.43422994 -0.70124197 0.10847584 0.28850478

rnn.weight_ih_l1 f4 [400, 100]
00000000: 7563 023f e4f5 8f3f b3cc 313e 82bb b93e
00000010: 77d5 2b3d 1f39 39bf ebde 8d3d 5bf5 f73e
00000020: 9535 07bf d6f8 68be ce05 aa3e 94ff 8f3e
00000030: 36f2 583f e816 e03d 8226 d43e 7e4c 74bf
00000040: 191f 90bf 44bb b63f 692c bcbd 981e b53e
00000050: 3c83 c23f 7d49 35bd 0f47 64bf d661 2d3f
00000060: e57f 56bc 2afb 153f 758b a43e 9d29 a9be
00000070: 4be2 2e3e 0513 7f3f 4177 ee3e c34b 0abf
00000080: e3e9 eb3e e420 a03f 4e2d 453d 8914 03bf
00000090: 14af 393f 5c81 9cbe 4c4f 80bf 9987 41bd
000000a0: 8cb5 16bd 5686 ba3e 45f3 9d3e ad60 b63f
000000b0: 4351 31bf d069 523e bfd3 823d ba3c 833f
000000c0: 0525 933f 8d9f b63e 34c7 573f 44ba afbe
000000d0: 0629 68be 8df2 8cbc e684 02bf 8327 8dbe
000000e0: aec6 de3d 02c2 dcbf fbbe b0be 551f 623e
000000f0: 8823 7b3e d3c3 2c3d 45c0 a53d 31d6 bf3e
00000100: 68b9 66bf 36d7 883e 54e2 29bf b45b 4abd
00000110: b48b bbbf 4b1d 0d3f 3c5c 903d 907b 283f
00000120: 87ff 88be cf78 0cbf 331e 31bf c67f 5e3f
00000130: b9fe c33e 942f 33bf 9402 323f 1c8b b33e
00000140: 6bf6 00bf 9973 aa3e 0d26 83bf 991a 24bf
00000150: 3c94 86bf 94a1 d13d a850 98be cc9a 883d
00000160: 35e5 343f 42ac 023f 0889 9c3e 5915 63bc
00000170: f79e 753f 5cf6 fe3e 4b8d 1e3e fe1e 853f
00000180: e1a2 be3d c860 5d3e 5711 57bf b8a9 81bf
00000190: 2925 48bf 9981 113f 8a4a c93e fb7d 4abf
000001a0: 524b 5f3f dfe2 11bf 07f1 303f f772 83bf
000001b0: 0ceb 133f 8494 103f 74b9 323f b818 8d3f
000001c0: f2fa 9fbe 4c56 543f 225c 88be 4b8a aabe
000001d0: ae79 1d3d 57af 84be 86c5 eb3e 0bef 9bbf
000001e0: 2338 953e f63a f13e 76d6 cd3f e3d3 7a3f
000001f0: e3c7 e8bd 5f3c b23e 290d 75be 5030 833e
00000200: 2f2a c83e ecd9 92be 228c c7bd 2339 79bf
00000210: 522c 643e 74ed 59be d158 22bf a1b6 d1be
00000220: 4157 3a3f 2ea5 35bf 3b08 cabe 768c 4abe
00000230: e4d3 9b3f f806 c6be 89a0 d53e bda3 02bf
00000240: 2741 d1bd 849a ce3e 2635 1c3d c0dd 95bf
00000250: 7af0 3abf 12b7 4cbe 440c 133f 49d9 47bf
00000260: 8cb4 873c 16a6 5f3f 7117 163f 47f0 87bd
00000270: 1e32 eabe 0058 a6bf 19cc cbbe 8694 38bf
00000280: becd 713f aea2 9bbf 3311 753e 96b9 14bf
00000290: fedc 983e 8b2a 8cbf 94ca 033e 9b17 58bc
000002a0: 4e5c 0ebe 985d c0be 8523 543e 32c5 fb3e
000002b0: 2cf2 7f3e d26a 16be d82d 363f f648 c3bf
000002c0: 3650 593e f9b7 983e 190d 78bd 4728 483f
000002d0: 24e5 34bf d0c2 bfbe 1c47 7e3f 1995 96be
000002e0: 5bd9 2cbe 75b1 74be 385a f2b9 f6f7 4b3f
000002f0: ef5d a43f 983f 60bf a72e 4b3f 0c6f b2be
00000300: 0160 ccbe 6de3 80bf 008d 1cbf 369b f8be
00000310: 4e67 053f ce1d 90be dc7e aeba b005 973f
00000320: 1d56 873e c6fe 0bbf 0c4e 0a3f 58ef debd
00000330: 3f1c 98be 2240 073f c74e b1be bb9b 01be
00000340: 0d2c d73e 9671 883e 32dc d83e 4e73 8a3e
00000350: bf84 d63e b3a0 8c3f 9dec aa3e b014 633f
00000360: de84 0abd a243 193f d115 a43e 15a8 02be
00000370: 9d2e 81be 4e91 183d 81f6 43be ab99 473f
00000380: b45d 7bbe 7bc1 74bf 7513 0d3d 9ce3 bdbf
00000390: 2db1 0abf 263d 2c3f f1b6 243e b145 afbc
000003a0: ecd0 003f 21a5 97bf eaae 5dbf 6175 cbbd
000003b0: 4c35 533f dd30 4c3d 2ebe 6c3e 2851 293f
000003c0: cede 63bf 94e5 033f f665 c0bd 6001 163e
000003d0: a7f3 f0be 5540 d53e 040a 68bf 7552 4bbe
000003e0: 765b 0abf 5a33 a5be 1360 853e cca4 593f
000003f0: 3a04 3b3e 17ac 973f abaf 073f 2aad 1dbe
0.5093301 1.1246915 0.17363243 0.3627587 0.041951623 -0.72352785 0.06927284 0.4842938
-0.52816135 -0.22751173 0.33207554 0.28124678 0.84744585 0.10941869 0.4143563 -0.9542922
-1.125949 1.4275899 -0.09188158 0.35374904 1.51963 -0.044259537 -0.89170927 0.6772741
-0.013092016 0.5858637 0.32137647 -0.3303956 0.17078511 0.99638397 0.4657536 -0.54021853
0.4607688 1.2510037 0.04813891 -0.5120321 0.72532773 -0.30567443 -1.00242 -0.047248457
-0.03679423 0.36430615 0.30849662 1.4248253 -0.6926462 0.20548177 0.063880436 1.0252907
1.1495672 0.35668603 0.84288335 -0.34321797 -0.22671899 -0.017205501 -0.50984037 -0.27569208
0.10877739 -1.7246706 -0.34520707 0.22082265 0.24525273 0.04217894 0.08093313 0.37468103
-0.9012666 0.26726693 -0.66360974 -0.04940386 -1.4652009 0.5512282 0.07048842 0.6581354
-0.26757452 -0.5487184 -0.69186705 0.86913717 0.38280275 -0.69994473 0.69535184 0.3506707
-0.50376004 0.3329132 -1.0245987 -0.64103085 -1.0513988 0.10235897 -0.29749036 0.0667015
0.7066224 0.51044095 0.30573297 -0.01386007 0.95945686 0.49797332 0.15483586 1.0400083
0.093084104 0.2161895 -0.84010834 -1.0129919 -0.781817 0.56838375 0.3931468 -0.7909848
0.87224305 -0.569868 0.6911778 -1.026946 0.5778053 0.56476617 0.6981423 1.1023169
-0.31246144 0.8294418 -0.26632792 -0.33308634 0.03844612 -0.25915024 0.46049136 -1.2182325
0.2914439 0.47115296 1.6081073 0.97979563 -0.1136625 0.34811684 -0.23930801 0.25622797
0.39094684 -0.28681886 -0.09743525 -0.9735281 0.22282532 -0.21281987 -0.63416773 -0.40959647
0.7278939 -0.7095517 -0.39459404 -0.19780144 1.2174039 -0.38677192 0.4172404 -0.51031095
-0.10217505 0.4035226 0.038136624 -1.1708298 -0.7302319 -0.19991711 0.5744059 -0.78065926
0.016565584 0.873628 0.5862952 -0.06637626 -0.4574136 -1.2995605 -0.39804152 -0.7210163
0.9445456 -1.2159021 0.23932342 -0.5809568 0.29856104 -1.0950483 0.12870246 -0.013189222
-0.13902399 -0.37571406 0.20716675 0.49173886 0.24994725 -0.14689186 0.711637 -1.5256641
0.21222004 0.2982786 -0.060559366 0.7818646 -0.7066214 -0.37453318 0.99327254 -0.29410627
-0.1687979 -0.2389582 -0.00046225055 0.79675233 1.2841166 -0.87597036 0.7936806 -0.34850347
-0.39916995 -1.0069405 -0.6115265 -0.48555917 0.52110755 -0.2814774 -0.0013312954 1.1798611
0.26432887 -0.5468563 0.5402534 -0.10885495 -0.2970905 0.52832234 -0.34630415 -0.12657063
0.42025796 0.2664916 0.42355496 0.27041095 0.41898152 1.0986542 0.33383647 0.8870344
-0.03381812 0.59868824 0.32047895 -0.1275943 -0.25230876 0.03724795 -0.19137003 0.77968854
-0.24547464 -0.9560773 0.034442384 -1.4835086 -0.541766 0.67280805 0.16085412 -0.021395536
0.5031879 -1.1847268 -0.8659502 -0.099344976 0.825032 0.049851287 0.23119423 0.6613946
-0.8901185 0.51522183 -0.093944475 0.14648962 -0.47060892 0.41650644 -0.9064028 -0.19855674
-0.5404581 -0.3226574 0.2604986 0.85017085 0.18263331 1.1849393 0.53002423 -0.15398088

rnn.weight_hh_l1 f4 [400, 100]
00000000: dbb0 73bf 672d 403e 71e6 c93e 2f2b 713f
00000010: dfe7 483e baed d73e 311e 463e da33 29bf
00000020: 7808 c93d ad8c 1bbd 3769 823f c073 2e3f
00000030: 0816 273e 415d 513e 9d89 5ebf 579f 0fbf
00000040: 4218 2e3e bc92 c9be 065c 7e3d e692 7c3f
00000050: e725 75bd 284c 56be 432a ef3d 21f8 da3e
00000060: a360 fb3e 5363 823d 2c9a 8abd 1ee6 263f
00000070: 5bf8 4a3f 8b01 883e b085 083f 7a2a 393e
00000080: 634a 923f c271 90be 470b b63e bdb3 d1be
00000090: 13a4 17bf 361e 1b3f ba5e 933e adb3 8ebe
000000a0: e83b 5bbf 309c 1a3f c1bf 063f b38f 03be
000000b0: c665 fdbe 84ea 5a3f 25a9 a4bd 3f74 78bf
000000c0: f96c 33bf 0d36 6c3f 963b 9fbe cbc2 543f
000000d0: bef2 a3be 7cbb 343d 494e ba3e 86c9 2e3f
000000e0: 4968 9fbf 54be a8be d9dc fe3e a006 ad3e
000000f0: b0bf f13e 243f 253f 0c28 00be 2a5c 2fbf
00000100: 0887 5dbe 3045 26be 9cb5 113f 55fe 053e
00000110: eca5 5fbe 482d f13e ccfb 643e c7ed e53e
00000120: 53bd 413d d653 a13e a55a f13e ba94 0ebf
00000130: 2c78 4ebe 3b09 b8be d3b4 a1bd 25e5 593d
00000140: 4d91 3d3f b3d4 8ebe 396e 2e3e 5894 8bbe
00000150: 1da6 d63e c2f1 92be 9dfa 45bf 7c25 7abe
00000160: ca3a fc3e 83ee 813e cd99 3e3e 9822 a33e
00000170: 56f9 6bbe 7f7a d83d f5c8 0e3b 5e3a 01bf
00000180: 9142 b93d a74a 98be 2b60 17bf e0b0 923d
00000190: 2f45 9dbc 59d9 703f c3ab e83b 36c0 10bf
000001a0: 5a3b abbe 9341 423f 315d 3b3f 7e0a 38bf
000001b0: 7eec 033f 0a99 87be 371b 80bf 650a 453f
000001c0: 69d3 8ebf cc26 bc3e 9e49 cebe 5963 5a3e
000001d0: 6854 3fbf ba49 58bf 13cd 333e ba6b 213f
000001e0: 3635 75be 38e0 9ebe 2ed4 953f a4d9 103d
000001f0: 75d0 a7be d986 93be 3afd b9be 5e49 4abf
00000200: 32b8 303f ba98 b0bd 3938 b53c 8a73 983e
00000210: 1fe4 b23e 36ba 40be 0aca fc3e b364 ebbe
00000220: bdba 5dbf 4d23 2f3d 20ff d2be 29a9 13bf
00000230: 19d3 a4bf 3a99 a6be 2b86 5d3f 4af9 903d
00000240: 71f3 333f 8b0f 1d3e 88b5 ef3e a73e 5dbf
00000250: b9d1 923e 3f59 423e 2048 483f c67b e03e
00000260: 5cae 0d3f 2b28 12be 9267 c33d c848 a23e
00000270: 799b 47be e06c 053e ca9f 00bf a121 04bf
00000280: eb7a 553e fc34 e53e 311f dc3e b4d9 fd3e
00000290: 4cf6 553e 405c cb3e 9ef5 663c 87c9 6fbf
000002a0: 9eb7 81bf c28d 0d3f 1932 083f 79d4 d13e
000002b0: bc24 823f f69c be3e e93a c33e 643d 5fbb
000002c0: b547 2c3f 7f01 7cbd 7c29 5e3d df5a 4fbf
000002d0: e879 163e 181f e8be 68e8 c3bd 239a a0bd
000002e0: 0282 babe 658b a5bd e0d0 433e 401c c43e
000002f0: 30c6 72bf 16ae 833f 3f8e ea3e 4a22 1ebe
00000300: 2d62 5e3f fa6f af3d 4ffe 5bbd fd92 a93f
00000310: 2f12 eabd 1b10 e63e d869 7d3f b490 473f
00000320: ff96 8ebe d44b 443f a908 87bf a05b b8bd
00000330: 39fa 48bf f8c2 143f f04d db3d d1c3 fd3e
00000340: 01d2 3d3f e8e2 c33c 49db 8a3f faff 0d3f
00000350: 7c03 91be 1b1b 4b3f 9ce9 a8bf 8a61 bbbe
00000360: 58f5 833e 3f96 93bf 277b 013f fc55 c5be
00000370: 2593 123f aba7 01bf 574e 373e 03b1 b63e
00000380: dc47 b1bf e534 e93d 4d67 2a3e dc42 043f
00000390: 2554 093d 1e2b f5be 52b8 8bbe ff7f c0be
000003a0: a7a5 b93d ebdc c03c 46fc c23d 8766 0d3f
000003b0: fbcc 873e 6593 d6be 4db2 de3e 9c79 bebf
000003c0: 5cd6 c7be 885b c5be 0b9d ba3e 3b75 eebe
000003d0: ce40 3e3f 53c6 863f 55d9 62be 2dec ab3e
000003e0: daae 25bf d6e8 123f ba8e 40bf 176c 5e3e
000003f0: 5275 c1bd ebbc 103f 4556 823f 357a a93d
-0.95191735 0.1876732 0.39433625 0.9420652 0.19619702 0.42173558 0.19347455 -0.66094744
0.098160684 -0.037975956 1.0188359 0.6814537 0.16316998 0.2044573 -0.8692873 -0.5610251
0.17001441 -0.39369762 0.06209948 0.9866165 -0.0598506 -0.20927489 0.11677983 0.42767432
0.49097165 0.06366601 -0.06767687 0.6519488 0.7928521 0.26563677 0.5332899 0.1808261
1.1428951 -0.2821179 0.3555548 -0.40957442 -0.5923473 0.60592973 0.28783208 -0.27871457
-0.85638285 0.60394573 0.52636343 -0.12847786 -0.4949171 0.8551409 -0.08040074 -0.9705238
-0.70088154 0.92269975 -0.31100148 0.8310973 -0.32021135 0.04412411 0.36387852 0.6827625
-1.24537 -0.3295771 0.49777868 0.33794117 0.47216558 0.6454947 -0.12515277 -0.68500006
-0.21633542 -0.1623733 0.5691774 0.13085301 -0.21840638 0.4710486 0.22361678 0.44907972
0.047299694 0.31509274 0.4713947 -0.5569569 -0.2016303 -0.35944542 -0.078958176 0.053197045
0.74049836 -0.27896652 0.17034234 -0.27261615 0.4192361 -0.28700072 -0.7733553 -0.24428362
0.49263602 0.25377283 0.18613358 0.3186233 -0.23044333 0.10570239 0.002178726 -0.50479686
0.090459 -0.29744455 -0.59131116 0.071626425 -0.019198028 0.94081646 0.0071005537 -0.5654329
-0.3344372 0.7588131 0.73189074 -0.7189101 0.51532733 -0.26483947 -1.0008305 0.76968986
-1.1158267 0.3674835 -0.4029054 0.2132696 -0.7473817 -0.844875 0.17558698 0.63055
-0.2394608 -0.3103044 1.1705377 0.03536381 -0.32776228 -0.28813818 -0.3632601 -0.790182
0.6903106 -0.0862288 0.022121536 0.2977565 0.34939668 -0.18821034 0.49372894 -0.45975265
-0.86613065 0.042758275 -0.4121027 -0.5767999 -1.2876922 -0.32538778 0.8653285 0.07078798
0.7029334 0.1533796 0.46818185 -0.86423725 0.2867563 0.18979357 0.78235054 0.43844432
0.55344176 -0.14273135 0.09541239 0.31696153 -0.19492902 0.13029814 -0.5024382 -0.51613814
0.2084767 0.44766986 0.42992547 0.49580157 0.20894736 0.3971882 0.014096646 -0.9366688
-1.013416 0.5529443 0.5320144 0.40982416 1.016746 0.37229127 0.38130882 -0.0034063691
0.67296916 -0.061524864 0.05423878 -0.80998033 0.14694941 -0.45336223 -0.09565812 -0.07841899
-0.36427313 -0.08083228 0.19122648 0.38302803 -0.9483366 1.0287502 0.4581165 -0.15442768
0.86868554 0.0856628 -0.053709324 1.3247982 -0.114292495 0.44934162 0.9898963 0.77955174
-0.27849576 0.76678205 -1.0549518 -0.09001851 -0.7850681 0.5811 0.10708225 0.4956346
0.74148566 0.023911908 1.084817 0.55468714 -0.2832297 0.79338235 -1.3196292 -0.36597854
0.2577312 -1.1530226 0.5057854 -0.38542163 0.57255775 -0.50646466 0.17900978 0.35681924
-1.3850055 0.11387042 0.16640969 0.5166452 0.033527512 -0.47884458 -0.27289063 -0.37597653
0.09064799 0.023542842 0.095207736 0.5523457 0.26523575 -0.41909328 0.43495408 -1.4880862
-0.3903073 -0.38546395 0.3644794 -0.46573815 0.74317634 1.0529274 -0.22153218 0.33578625
-0.6471993 0.5738653 -0.75217783 0.2172092 -0.09446205 0.56538266 1.0182577 0.08275262

rnn.bias_ih_l1 f4 [400]
00000000: 810e d7bf 6919 2bbf 9bc1 2dbf 6052 60bf
00000010: 11ad 8ebf 09cf 5ebf 07c4 76bf 8bf4 a93d
00000020: 1e70 d2bf e07c 60bf a14f 44bf 13c1 61bf
00000030: 5bfa a3bf 3c5f 8abf b029 87be 1dfe 073f
00000040: 051b babf 4d54 92bf 57dd 78bf c05e 14bf
00000050: dc9d 59bf 6499 4dbe 0ced 77bf dc09 b6bf
00000060: 009b 65bf 31be 3bbf e00c bcbf 56b9 5dbf
00000070: 0461 82bf af66 81bf bc15 f1be 0b2a 85bf
00000080: e2b2 7bbf a810 78bf 0bac 87bf b3cf abbf
00000090: 7715 5fbe 4feb a9bf 21ec 9bbf edd2 f93e
000000a0: 8727 a2bf 94e2 bfbf 19d5 23bf 189c a3bf
000000b0: dab7 ffbe 9276 20bf 7d2b 8dbf 418b 0cbf
000000c0: c156 b1bf dbd0 8bbf ffa7 10bf c390 f3bd
000000d0: 9b90 a7bf 5670 2bbf 8e7a 32bf 42c0 6dbf
000000e0: 831b 4fbf b6b4 b3bf 7dce 00bf 996f 28bf
000000f0: 779b 3bbf 078e 9dbf ef5a 15bf f1fe 2c3b
00000100: f6fb 67bf e3e9 5abe b4d3 31bf 2625 21bf
00000110: b9ab aabf efac abbf e5ed 9cbf d8ee 9abf
00000120: 9a51 b6bf 141c bdbe 73e6 9cbf 709a a6bf
00000130: 1fda 49bf 67f3 b3bf 4163 04bf bdd2 97bf
00000140: 2624 aabe 29a6 9dbe bcdf 13bf 0740 62bf
00000150: 0ba1 43bf c1a6 b0be 5861 9bbf 0f26 05bf
00000160: cb42 98bf 11d8 babf ad44 0bbf f131 c8be
00000170: 95d6 b2bf d4c8 66bf b6a4 e8be 6db0 bfbf
00000180: eb1e cfbe 479a bfbf 3407 89bf 12a7 9ebf
00000190: 8fe3 6e3e 19f6 d1bd cf2b 1cbf be6f 78bf
000001a0: df4e 473e dd00 4dbe ebdc b1be 3a08 8bbe
000001b0: 2742 873e 8640 7abe 5412 0a3e a33a 79bf
000001c0: 196d 98be caeb 8dbe d479 c2be c509 81bf
000001d0: 540a 5ebf 2398 70bf e60d 8fbd e5ca f8be
000001e0: 61c1 32bf 6703 94be 353d 4dbf ecc6 28be
000001f0: aca2 17bf da69 04be 29a9 55bf 3b4b 0abf
00000200: 7ff0 c83e 3404 08bf d928 64bf 0ec4 2c3e
00000210: a278 703e 433a 5d3e 3831 083f 4d81 243f
00000220: 1ed7 cdbe 3bd5 29bc c55f e53d 1bbb 81bf
00000230: a192 90be 9e06 6bbe c9b2 4abf 17bc 0e3f
00000240: a503 d7be 044b 1ebf 236c 75bf cade a1be
00000250: 4215 94bc 9198 07bf 0aae 16be 3f05 3cbf
00000260: 4236 3abe 3bb3 bdbe c1bc 56bf eda3 e7be
00000270: 3a63 58bc 3d5f b03f 8aa6 8a3e 666d 62be
00000280: 1adc 90bd f0f0 23bf 83fd 33bd 2fce abbe
00000290: 0b54 043f af73 d0bf 8c15 ccbe 939e f1be
000002a0: d307 4b3f 3314 44bf 1468 35be 7792 66bf
000002b0: b4db 5cbe 4b79 a6be 4ae1 89bf 2878 b7be
000002c0: 7662 043f d962 a6be e92b bfbe b589 7abe
000002d0: 94d0 38be 6e61 82bf 8876 4b3e 87e0 2bbe
000002e0: f104 4abe d02f 953f c119 f7bd 72dd 5fbf
000002f0: f162 55bf 2d50 2fbf 6e09 3a3e e838 3dbf
00000300: 2903 3a3f 22c3 11bf 8562 eebe b40d 53bf
00000310: 4019 983d eb5d d2be 5d9d 33bf 0ff4 f13e
00000320: 5efa d13e 64c7 e4be 66ab 1a3f 2017 ec3e
00000330: a5b6 573e 833c 863d c733 54be 223f 743f
00000340: 9376 303e 1e0a c13e e69d e4be b46f 5ebe
00000350: a495 f53e 66ed eebb 2e4d 283f 97a6 9c3f
00000360: 8a82 9abd db11 3cbe f342 c3be 7c9c 0bbe
00000370: 3323 eebe 2087 ad3e 65f6 70bd 489d 423e
00000380: 140b f33c 12fe dcbe e8b2 5dbd 00b2 9cbe
00000390: f201 963d 2eb2 2a3e ca6c b33e e938 bd3d
000003a0: 14a1 8cbe 2671 cabc 354d 403e 5af0 8bbd
000003b0: 86bb 123f 3a30 06bf d22a 2c3d 7004 a13f
000003c0: 6c29 0c3e 92fa c53e c7a1 1bbe 0123 003e
000003d0: 7d4b 83be cab2 72be 9aa3 0fbe 02e0 23be
000003e0: 6b3e 513e f4d5 92be 362d 323e 54f5 38bf
000003f0: 35cb 853d 1a6f 693e ff94 9cbe 21c0 ffbe
-1.6801301 -0.6683565 -0.67873544 -0.87625694 -1.1146566 -0.8703466 -0.96392864 0.08298596
-1.6440465 -0.87690544 -0.76684004 -0.8818523 -1.2810777 -1.0810313 -0.26398993 0.5312212
-1.4539496 -1.1431977 -0.9721274 -0.5795708 -0.850065 -0.20078045 -0.9684608 -1.4221759
-0.89689636 -0.73337084 -1.4691429 -0.86610925 -1.0185857 -1.0109462 -0.47086895 -1.0403455
-0.9831983 -0.96900415 -1.0599378 -1.342276 -0.21785532 -1.3274935 -1.2181436 0.48793736
-1.2668313 -1.4991021 -0.63997036 -1.2782011 -0.49944955 -0.62680924 -1.1028897 -0.54899985
-1.38546 -1.0923113 -0.5650634 -0.118928455 -1.3091005 -0.66968286 -0.69718254 -0.9287149
-0.80901355 -1.4039524 -0.50315076 -0.65795285 -0.73284096 -1.2308968 -0.5834188 0.0026397074
-0.90618837 -0.21378283 -0.6946366 -0.6294731 -1.3333656 -1.341215 -1.22601 -1.2104139
-1.4243653 -0.36935484 -1.2257828 -1.301588 -0.7884845 -1.4058656 -0.5171395 -1.1861187
-0.33230704 -0.30790833 -0.57763267 -0.8837895 -0.7641761 -0.34502223 -1.2139082 -0.520112
-1.1895384 -1.4597188 -0.54401666 -0.39100602 -1.3971735 -0.9015019 -0.45438164 -1.4975716
-0.40453276 -1.4968957 -1.0705323 -1.2394736 0.23328994 -0.102520175 -0.61004347 -0.97045505
0.1946368 -0.2001986 -0.3473886 -0.27154714 0.26417658 -0.24438676 0.13483554 -0.973551
-0.29770735 -0.27718955 -0.37983572 -1.0081106 -0.8673451 -0.9398214 -0.06985073 -0.48592296
-0.6982632 -0.28908846 -0.8017152 -0.16482133 -0.5923259 -0.12931004 -0.8346124 -0.5402104
0.39245984 -0.53131413 -0.8912483 0.16871664 0.23483518 0.21604256 0.532001 0.642598
-0.40203184 -0.0103657795 0.11199907 -1.0135225 -0.2823687 -0.22951743 -0.79179054 0.5575575
-0.41994968 -0.61833215 -0.9586813 -0.31615287 -0.018076543 -0.5296717 -0.14714828 -0.73445505
-0.1818476 -0.37050804 -0.83881766 -0.45242253 -0.013207251 1.3779064 0.27080184 -0.22112045
-0.07073231 -0.64039516 -0.04394294 -0.33555743 0.5169074 -1.6285304 -0.3986019 -0.47191295
0.79308814 -0.7659332 -0.17715484 -0.9006724 -0.21568185 -0.32514414 -1.0771878 -0.3583386
0.5171274 -0.3249729 -0.37338188 -0.24466594 -0.18048316 -1.0185983 0.19869435 -0.16784869
-0.19728447 1.1655216 -0.12065459 -0.87447274 -0.833541 -0.68481714 0.1816766 -0.7391496
0.7266107 -0.56938374 -0.4655954 -0.82442784 0.07426691 -0.4108728 -0.7016199 0.47256514
0.41011328 -0.44683373 0.60417783 0.46111393 0.21065767 0.065545104 -0.20722876 0.95408833
0.17232732 0.3770303 -0.44651717 -0.21722299 0.4796573 -0.0072914837 0.65742767 1.2238339
-0.075444296 -0.18366186 -0.38137016 -0.13633913 -0.4651123 0.33892155 -0.05882873 0.1900531
0.029668368 -0.4316259 -0.054125696 -0.30604553 0.0732459 0.16669533 0.35043937 0.092393704
-0.27466643 -0.024712157 0.18779452 -0.06832953 0.5731739 -0.5241734 0.042033024 1.2579479
0.13687676 0.38667732 -0.15198432 0.12513353 -0.2564353 -0.23701015 -0.14027253 -0.16003421
0.20433967 -0.28678858 0.17400059 -0.7224934 0.06532899 0.22796288 -0.30582425 -0.4995127

rnn.bias_hh_l1 f4 [400]
00000000: 4383 a8bf 634a 1fbf 9d8c 34bf 6a7a 36bf
00000010: 1190 9bbf f2f2 88bf 6d5d a2bf 9417 edbc
00000020: fe5f ccbf e4f4 2bbf 2384 20bf 96e1 70bf
00000030: 5d78 a2bf 858f 6bbf a19c 24be 6d8e 303f
00000040: eb39 b0bf f7ee 73bf d7ac 73bf db03 69bf
00000050: 573c 80bf f474 a2be 2b72 85bf 1aab c2bf
00000060: 44d5 29bf f49f 5dbf 446d c9bf 44a3 48bf
00000070: db9e 59bf 2b7d 4ebf d3b2 e8be 4b36 86bf
00000080: 8535 80bf 6dec 87bf fec9 50bf 24cf c3bf
00000090: 781e 35bd d672 8ebf c477 8dbf 38b1 093f
000000a0: 1db1 babf 79f8 9dbf 2c04 11bf 897b aabf
000000b0: 5247 16bf 4dff 55bf 321a 9cbf 9468 35bf
000000c0: b647 cabf e391 bbbf 2f42 02bf 8051 28be
000000d0: 0332 98bf fa82 56bf c7cc c5be 35e0 5abf
000000e0: 23b6 31bf 6ee3 acbf b9f5 21bf 2ca6 28bf
000000f0: 404a 30bf dbe6 79bf 15cb 2cbf d9de 97bd
00000100: e6a0 a1bf a6bf babe a8d6 55bf 4d93 d7be
00000110: d836 aabf d782 c9bf 6397 92bf c281 8bbf
00000120: cddc 95bf ac3e 37bf 584c a4bf 3635 aabf
00000130: 1abb 38bf 53b9 bebf 288e 5bbf c137 abbf
00000140: 2873 21bf 744a 90be 85f3 0fbf c8d7 2cbf
00000150: e932 1ebf f42e dfbd 9afb bfbf b949 a4be
00000160: 9cd9 99bf f6c0 bfbf 0814 c3be c24a e0be
00000170: f81e a8bf 11ed 8fbf 4374 30bf bfd0 b9bf
00000180: 0df5 24bf 5064 afbf aafe a2bf 00e9 b2bf
00000190: 6cd2 793e e265 67bd 808a 47bf 28ba 6abf
000001a0: b942 043e 539f dcbe 972e fabe d17e 7dbd
000001b0: 0de2 c23e be39 d2be 596b 1b3d 0ff2 43bf
000001c0: 64a6 03bf 8782 5bbe 7527 b1be e0c0 84bf
000001d0: fbc4 2ebf b087 91bf 69cb 77be 0737 36bf
000001e0: 76b4 2ebf 5a8f debe ab96 33bf 64c8 6dbe
000001f0: 2d7d 54bf 0b4f c0be bc83 10bf 099b 7cbe
00000200: c5b1 5a3d 371f d0be 9971 6dbf e2e3 763e
00000210: a8e6 863e 198c 9cbc 5d86 f83e adeb 273f
00000220: 5f9c fbbe 559e 3a3d d796 d03e de4b 92bf
00000230: 2c4e 9cbd 4bb5 9bbe 298b 18bf c964 203f
00000240: a901 15bf 21c7 cfbe 4860 83bf f75f 00bf
00000250: e7e7 6e3e fcfa 24bf 8c41 9ebe 57df 20bf
00000260: f6e5 4abe a102 58be 5bf0 87bf 4e65 fcbe
00000270: ecc3 8abe ea03 983f f014 3e3e 0c5d e4bd
00000280: 991b 5e3c ec03 3cbf 771a b43d 197f 48be
00000290: ebd4 013f 0378 adbf 25d1 03bf 6280 28bf
000002a0: 82db 2e3f 6aa5 39bf 5b8c 67bc fc78 2bbf
000002b0: 9078 72be 382a 44be fabf 84bf 2375 aabe
000002c0: 3c7c 043f b82e eabe 1ea8 e1be fe32 dfbe
000002d0: e2aa 0bbd 8120 7bbf 08f6 fc3e c0fb c5be
000002e0: a107 cc3b 50a6 963f 1ffc 8d3d e04d 7cbf
000002f0: cb32 63bf 712e 78bf c4e4 ad3e 7a5d 41bf
00000300: aecf 423f 8c6b 8bbe 4a1c c7be f848 39bf
00000310: dfec 213e e2e1 21bf fc96 01bf 8e34 d63e
00000320: f3de cb3d 1f67 13be 88af 383f d4e3 ac3e
00000330: 107d eb3d 3c9a c13d 75a6 46be d9bf 9f3f
00000340: 5610 36bd cdf5 ed3d 7556 79be 3f0e 1abe
00000350: 831a 353e 5ce8 40be d6f7 2e3f f117 753f
00000360: b81b 073e b36f ee3c 0d79 f5bd b2e8 843c
00000370: 9d3d c4be b257 a63e 7c5d 063e 05a1 9abd
00000380: dd71 8abc 1ddc e9be 877f 573e a075 9dbe
00000390: 2a9f ac3d 3fa2 783c 02fd a83e 0ef6 e4bd
000003a0: 7b37 b4bd 56a9 343e a34f 9a3e d118 223e
000003b0: a9f8 e13e 1a27 acbe bdfa 51be 6883 983f
000003c0: 08da 8d3e 30fe 313e 07b8 21bb a312 be3e
000003d0: 628e 11bf e4d2 a1be 2a44 903d 2657 2e3d
000003e0: d29b 463d a497 52be 41a9 323e e841 08bf
000003f0: 5c7b 403e 198a 503e 5ff8 dabe d3bd a9be
-1.3165058 -0.6222288 -0.7052706 -0.7128054 -1.215334 -1.0699141 -1.2684761 -0.028941907
-1.5966794 -0.6717055 -0.62701625 -0.94094217 -1.2692982 -0.9201587 -0.16075374 0.68967324
-1.3767675 -0.95286506 -0.9518561 -0.9102151 -1.0018414 -0.31729853 -1.0425466 -1.5208466
-0.6634104 -0.86572194 -1.573647 -0.78374124 -0.8500802 -0.8065974 -0.45448932 -1.0485319
-1.0016333 -1.0619026 -0.81558216 -1.5297589 -0.04421851 -1.1128795 -1.1052175 0.5378604
-1.4585301 -1.2341453 -0.5664699 -1.331895 -0.58702576 -0.83592683 -1.2195494 -0.708627
-1.5803134 -1.4653896 -0.5088224 -0.1643734 -1.1890262 -0.83793604 -0.38632795 -0.8549836
-0.69418544 -1.3506906 -0.6326557 -0.6587856 -0.68863297 -0.9761788 -0.6749738 -0.07415552
-1.2627227 -0.3647434 -0.83530664 -0.4210457 -1.3297987 -1.5743054 -1.145245 -1.0898974
-1.1708008 -0.71580005 -1.2835798 -1.3297489 -0.72160494 -1.4900306 -0.8576379 -1.337639
-0.6306634 -0.28181803 -0.56230956 -0.67516756 -0.6179643 -0.108976275 -1.4998658 -0.32087496
-1.2019534 -1.4980762 -0.3810122 -0.43807036 -1.3134451 -1.1244222 -0.689274 -1.4516829
-0.6443642 -1.3702488 -1.2733967 -1.3977356 0.24396676 -0.056493647 -0.7794571 -0.916903
0.12916078 -0.43090305 -0.4886367 -0.06188852 0.38063088 -0.4105968 0.03794417 -0.7654123
-0.51425767 -0.21436511 -0.34600416 -1.0371361 -0.6826932 -1.1369534 -0.24198689 -0.71177715
-0.6824411 -0.43468744 -0.70151776 -0.23220974 -0.83003503 -0.37560305 -0.5645101 -0.24668516
0.05339219 -0.40648815 -0.9275146 0.24110368 0.26347852 -0.019109773 0.4854001 0.6559399
-0.4914274 0.045561153 0.40740082 -1.1429403 -0.076320976 -0.30411753 -0.5958734 0.62653786
-0.5820566 -0.4058161 -1.0263758 -0.5014643 0.23330651 -0.6444547 -0.30909383 -0.6284079
-0.19814286 -0.21094753 -1.0620226 -0.4929604 -0.27102602 1.1876194 0.18562675 -0.1115056
0.0135563845 -0.73443484 0.0879411 -0.19579734 0.5071551 -1.355225 -0.51491004 -0.65820897
0.6830369 -0.72518027 -0.014132584 -0.6698148 -0.23678803 -0.1915673 -1.0371087 -0.33292493
0.51752067 -0.4573877 -0.44073576 -0.4359359 -0.034098513 -0.9809647 0.49406457 -0.38668633
0.0062264954 1.1769505 0.06932854 -0.9855633 -0.8874938 -0.96945864 0.33963597 -0.7553326
0.76098144 -0.2723049 -0.3888877 -0.72376966 0.15813015 -0.63235295 -0.5062101 0.4183697
0.099546336 -0.14394806 0.7214284 0.3376757 0.11498463 0.09453246 -0.19399436 1.2480422
-0.044449173 0.116191484 -0.24349387 -0.15044497 0.17685895 -0.18838638 0.6834692 0.95739657
0.13194168 0.029105997 -0.11985979 0.016224239 -0.38328257 0.3248878 0.13121599 -0.07550243
-0.016899997 -0.45675746 0.21044742 -0.30753803 0.08428796 0.015175401 0.3300553 -0.11179744
-0.087996446 0.17642722 0.30138883 0.15829779 0.44135025 -0.33623582 -0.20505805 1.1915102
0.27705407 0.17382121 -0.002467634 0.37123594 -0.56857884 -0.3160621 0.07044251 0.04256358
0.048488446 -0.20565659 0.17447378 -0.53225565 0.18797058 0.2036518 -0.42767617 -0.33152637
