SparseAE_epoch200.pth (torch_old, 39417 bytes, 10 tensors)

encoder.sparse1.weight f4 [52, 52]
0.007405743 0.026213577 -0.041911628 -0.389084 -0.010905006 -0.009021271 -0.037769794 0.05499048
-0.1163384 -0.03607752 -0.014258211 0.0028937235 0.0068647494 -0.0116140125 -0.015225394 -0.04502742
0.01833972 0.039789207 -0.022621443 0.015617097 0.0023005656 -0.05079105 0.015276634 -0.0011132184
-0.024526121 0.0013645447 0.011055727 -0.053423595 0.032821946 0.009716146 0.044477716 0.028607748
-0.05159006 -0.032269645 -0.033012126 -0.009845298 -0.04697669 0.02380873 -0.069939144 0.0038101105
-0.03637737 -0.013608167 0.016996983 0.028162416 -8.382422 0.035554424 -0.016136082 0.023014324
-0.000796716 0.013821766 0.1727171 0.007610027 -0.20551732 -0.07877135 0.0016346305 -0.21238238
0.03154735 -0.04184752 -0.046838872 -0.06345295 -0.022731232 0.0022805154 -0.20042402 0.015158139
0.107215755 0.04496031 -0.010620795 -0.07757882 -0.07242185 0.51976705 -0.09345016 0.13069065
-0.2775849 -0.27078524 -0.14652447 0.11268307 -0.1162807 0.04583729 0.06860685 0.09517927
-0.07947914 0.13689978 -0.044382866 -0.08636562 0.07168265 0.1464974 -0.12823121 -0.08990352
0.079473846 0.02509194 -0.107833005 0.0045634224 -0.11496928 -0.17989257 -0.011027897 0.18480507
-0.20968734 0.06321315 0.008253442 0.0019805494 -0.039006166 0.44521382 0.13152717 -0.4460817
0.07546909 0.012299484 0.12586579 -0.2766478 -0.076997116 -0.116331 -0.15134962 0.2170809
0.14236487 0.08021976 -0.24857049 0.031683993 0.09514663 -0.09800416 0.0008578197 -0.2400644
-0.038495556 -0.13268852 -0.01826836 0.34277457 -0.08130005 -0.23486131 -0.16796614 0.027878938
-0.0125351325 -0.020345727 0.10636477 -0.12635507 -0.004421882 0.05782292 0.037175782 0.005834763
0.08788833 -0.21152648 0.061782047 0.06361209 -0.16894871 0.019496523 0.16153687 -0.0019061919
0.089302234 -0.051575135 -0.00015143222 0.27583537 -0.05604936 0.36228842 0.035173655 -0.010590321
-0.045114946 0.06941296 0.13499902 0.18447004 -0.12291402 0.24657837 -0.011304504 -0.24074803
-0.011611222 -0.22020848 0.06889763 0.3885401 -0.022771776 -0.16593963 -0.022073364 -0.11286074
-0.020842886 -0.01968315 -0.004664897 0.09113381 -0.4457711 0.07555158 0.14426081 -0.04913527
-0.047602754 1.3936718 -0.06084526 0.0036358421 0.029973224 -0.10700755 0.13078022 0.0050556134
-0.0059892135 0.040438186 0.05941985 0.14106713 0.013374866 0.044978093 -0.093855254 -0.17891517
0.10796563 0.013922488 0.20405693 -0.08984183 0.20180248 -0.33589855 -0.10123684 0.033446092
-0.97827166 -0.004344476 -0.006130201 -0.107692204 -0.04973416 0.08877094 -0.050523534 -0.24154708
-0.07313386 0.15366124 -0.02173898 -0.19741155 0.01247411 -0.085178204 0.025612144 0.031419057
0.041995153 -0.123030126 0.034892697 -0.0056264987 0.001378323 0.07802423 -0.01992825 0.020638596
-0.040703885 0.6624241 -0.33528358 -0.08922056 0.36900955 0.108888485 -0.08145256 0.036468737
0.018741935 -0.009838719 0.04145758 0.05780434 -0.18012454 -0.07315484 0.032704752 0.04642687
0.05413505 0.01830769 0.04255902 -0.08369084 0.06338507 -0.34392148 0.10646977 0.024592625
0.008006557 0.022245912 -0.099003874 0.16221759 -0.07552252 0.031360637 -0.001512005 -0.0058823735
00000000: e0ab f23b dbbd d63c 87ab 2bbd 0536 c7be
00000010: e9aa 32bc f4cd 13bc 80b4 1abd b33d 613d
00000020: d442 eebd 06c6 13bd 459b 69bc a0a4 3d3b
00000030: b1f1 e03b b348 3ebc ee73 79bc ac6e 38bd
00000040: 2e3d 963c 02fa 223d 9b50 b9bc dade 7f3c
00000050: 16c5 163b 470a 50bd d94a 7a3c 69e9 91ba
00000060: 01eb c8bc 86da b23a 1423 353c b3d2 5abd
00000070: 4e70 063d 7830 1f3c 442e 363d cc5a ea3c
00000080: 1950 53bd 2d2d 04bd b937 07bd 2c4e 21bc
00000090: a16a 40bd 870a c33c 413c 8fbd 0cb3 793b
000000a0: 7000 15bd caf4 5ebc 423d 8b3c deb4 e63c
000000b0: 671e 06c1 84a1 113d d12f 84bc 8988 bc3c
000000c0: b5da 50ba b074 623c c0dc 303e 895d f93b
000000d0: 2273 52be e052 a1bd 1941 d63a c47a 59be
000000e0: cb37 013d 4e68 2bbd 1eda 3fbd 9ff3 81bd
000000f0: d936 babc b374 153b f43b 4dbe d859 783c
00000100: ef93 db3d 4d28 383d d802 2ebc a5e1 9ebd
00000110: e851 94bd 740f 053f cc62 bfbd c5d3 053e
00000120: 9c1f 8ebe 5da4 8abe 830a 16be 62c6 e63d
00000130: 9324 eebd e2bf 3b3d c081 8c3d 59ed c23d
00000140: f6c5 a2bd 752f 0c3e cfca 35bd 75e0 b0bd
00000150: 5ace 923d 6a03 163e 0b4f 03be 561f b8bd
00000160: 2fc3 a23d 9d8d cd3c 8dd7 dcbd c388 953b
00000170: 0475 ebbd c235 38be 5aae 34bc 8a3d 3d3e
00000180: 47b8 56be e575 813d 7239 073c 1bcc 013b
00000190: eec4 1fbd 11f3 e33e 0faf 063e d264 e4be
000001a0: 8a8f 9a3d c683 493c f6e2 003e c8a4 8dbe
000001b0: aab0 9dbd f33e eebd 65fb 1abe 754a 5e3e
000001c0: 19c8 113e 424a a43d 4389 7ebe 13c7 013d
000001d0: 3ddc c23d 68b6 c8bd 4edf 603a 71d3 75be
000001e0: 84ad 1dbd 80df 07be 87a7 95bc 2680 af3e
000001f0: a480 a6bd 7c7f 70be 51ff 2bbe 5f62 e43c
00000200: 2860 4dbc 15ac a6bc c6d5 d93d 3963 01be
00000210: 6fe5 90bb bad7 6c3d a245 183d 8a31 bf3b
00000220: ccfe b33d 669a 58be 2c0f 7d3d 0e47 823d
00000230: e400 2dbe 2cb7 9f3c ec69 253e 30d9 f9ba
00000240: 17e4 b63d 7340 53bd c7c9 1eb9 4b3a 8d3e
00000250: 0494 65bd de7d b93e 4012 103d 0783 2dbc
00000260: 73ca 38bd 6228 8e3d 2f3d 0a3e b7e5 3c3e
00000270: 59ba fbbd 0a7f 7c3e 8736 39bc a786 76be
00000280: ff3c 3ebc 557e 61be 331a 8d3d baee c63e
00000290: e08b babc 14ec 29be 33d3 b4bc 8823 e7bd
000002a0: b3be aabc 8f3e a1bc fedb 98bb 5da4 ba3d
000002b0: 1c3c e4be c9ba 9a3d 1bb9 133e 1142 49bd
000002c0: 1bfb 42bd d663 b23f e138 79bd 4f47 6e3b
000002d0: 688a f53c c626 dbbd 40eb 053e 8fa9 a53b
000002e0: 2a41 c4bb 83a2 253d 3b62 733d e773 103e
000002f0: 4122 5b3c f33a 383d 2f37 c0bd 8a35 37be
00000300: 161d dd3d 261b 643c 4df4 503e fefe b7bd
00000310: 4fa5 4e3e e5fa abbe 4355 cfbd c5fe 083d
00000320: 0370 7abf 1b5c 8ebb dadf c8bb bb8d dcbd
00000330: 0cb6 4bbd 8acd b53d c4f1 4ebd 1e58 77be
00000340: 35c7 95bd 5f59 1d3e f215 b2bc 4126 4abe
00000350: 3660 4c3c e971 aebd 8fd0 d13c 45b1 003d
00000360: 1c03 2c3d 38f7 fbbd a5eb 0e3d 7e5e b8bb
00000370: d8a8 b43a 2bcb 9f3d 9240 a3bc 4612 a93c
00000380: 1eb9 26bd a094 293f 4aaa abbe 45b9 b6bd
00000390: d2ee bc3e ed00 df3d 9ad0 a6bd 3e60 153d
000003a0: b088 993c 9432 21bc 6ccf 293d 3ec4 6c3d
000003b0: 9172 38be 34d2 95bd 6bf5 053d 1a2a 3e3d
000003c0: b7bc 5d3d 02fa 953c 5e52 2e3d 1a66 abbd
000003d0: 08d0 813d 7a16 b0be d30c da3d 7976 c93c
000003e0: ef2d 033c 0f3d b63c 8bc2 cabd 5e1c 263e
000003f0: 8dab 9abd 0374 003d 782e c6ba edc0 c0bb

encoder.sparse1.bias f4 [52]
-1.2830923 0.57873684 1.8523184 7.3245296 -2.3202689 -4.495517 1.6874619 1.0721787
4.618307 -5.260768 5.7396693 -2.4083326 5.667894 3.5786803 5.28479 -7.1149416
2.7811487 -3.063713 4.121852 -4.566711 2.3181138 -6.513456 -2.5893536 2.32289
-5.5374207 -4.001155 -1.3104098 -1.2861838 4.5776777 4.4379325 6.724601 6.4918838
-2.8049624 -2.1663609 2.059779 2.0393274 -2.9947839 4.4846735 -5.511753 -1.8582706
3.7288566 3.14492 4.5523453 -2.5020845 1.3830919 0.79160136 3.8314476 -5.0955715
-4.67477 2.1263256 2.33049 4.796152
00000000: 5e3c a4bf 1928 143f c518 ed3f 8c62 ea40
00000010: 497f 14c0 46db 8fc0 c0fe d73f 273d 893f
00000020: 2cc9 9340 3658 a8c0 5fab b740 1f22 1ac0
00000030: 635f b540 1909 6540 001d a940 9aad e3c0
00000040: 57fe 3140 e013 44c0 36e6 8340 7f22 92c0
00000050: fa5b 1440 3b6e d0c0 f8b7 25c0 3baa 1440
00000060: 8d32 b1c0 7609 80c0 82bb a7bf aca1 a4bf
00000070: 567c 9240 8b03 8e40 ee2f d740 83bd cf40
00000080: 8184 33c0 a8a5 0ac0 6bd3 0340 5784 0240
00000090: 8aaa 3fc0 7282 8f40 4860 b0c0 d0db edbf
000000a0: 96a5 6e40 5f46 4940 d0ac 9140 2722 20c0
000000b0: 2809 b13f 63a6 4a3f 7036 7540 ec0e a3c0
000000c0: b797 95c0 b815 0840 c026 1540 147a 9940

encoder.sparse2.weight f4 [30, 52]
0.37327608 0.1476553 -0.43642765 -0.20695226 -1.0977302 0.19317344 -0.43736544 -0.40420702
-0.15606569 0.26925555 -0.6976427 0.57497454 -0.12762351 -0.2939386 0.17512557 -0.48100972
0.5258256 0.29194334 -0.4941505 0.46080402 0.06005922 0.044335112 0.29409268 0.08193422
0.017261803 0.30971467 -0.105641775 0.058546644 -0.092273004 0.073843874 0.21477067 0.9398726
-0.25619718 0.25945333 0.21728255 -0.20812404 -0.9140767 -0.35716292 -0.45406604 -0.38110745
0.44862503 -0.28625125 0.955396 -0.2784639 0.0071040518 -0.16642214 -0.43213767 1.4954617
-0.046794236 0.19173214 0.051762138 -0.13474837 -0.36732456 -0.20216164 -0.005269804 -1.0136074
-0.10767962 0.66775614 -0.040347204 0.3281894 0.61030865 -0.5382054 0.5102566 0.36012062
0.8931449 -0.32895327 -0.6420133 0.47186035 -0.10136418 0.20938048 -0.29615173 0.9944597
0.42492142 -0.7432127 0.18870853 0.04998565 0.27136025 -0.33742198 -0.03305754 -0.015119506
-0.9017372 -0.17867626 0.609234 0.33214292 -0.08029777 0.22704437 0.22399107 0.13698016
0.62949044 -0.27044532 0.3036434 -0.45861515 0.10474934 0.2934098 -0.13147908 -0.17802463
0.11487484 0.104063064 -0.84795713 -0.44376743 0.3694191 0.20752451 0.25807914 0.2759899
-0.12751724 -0.15221278 0.49762532 0.22329974 -0.6986536 -1.0823276 0.06340432 0.093971044
-1.1395124 -0.39821246 0.47667834 0.67110014 0.3388026 0.07764732 -1.3795645 -0.17509145
-0.4546526 -0.0994037 0.6759579 -0.031975515 1.417846 0.2282876 0.3050225 -0.4975721
-0.39409375 -0.19435143 0.0943934 0.061334047 -0.27457303 -0.6819405 -0.9862505 -0.1601037
0.49022672 0.26472798 0.080766864 0.84767276 0.99171823 -0.115899235 1.0790497 -0.51454556
-0.5165299 0.8627059 0.7617801 0.7510951 0.1930823 -0.049128976 0.035117056 -0.33715612
0.21771842 2.0823915 0.31414202 -0.76059276 0.39713785 -0.24286442 -0.17696694 -0.6411217
0.17608657 -0.19052376 0.271181 -0.34913868 0.29093587 -0.53180736 0.7692428 0.3370127
0.008951504 -0.33492285 0.4908792 -0.44457495 0.49943712 -0.044195905 -1.0089442 0.81107426
0.63018125 -0.16376181 0.3054562 0.14560917 -0.16721357 0.45929182 -0.055252764 -0.42089468
-1.2203392 -0.23975566 0.5561249 0.19483687 -0.029595599 0.11781035 0.19903012 0.14261036
0.13206786 0.31818423 -1.586349 -0.17973675 0.5336438 -0.06760046 -0.24945903 -0.5267631
0.38225734 0.32599026 -1.0137833 -0.07000866 -0.17320731 -0.04566842 0.019429198 0.3322516
-0.15656045 0.55213714 0.42075542 -1.4052519 -0.2946653 -0.65644383 0.121365264 0.11568091
0.6335184 0.127634 0.55571866 -0.049848612 -0.17598103 0.21238938 0.18670316 -0.62394303
-0.05621935 -0.4107031 0.34157053 -0.45637947 -0.06571653 -0.30658767 0.21000956 0.23064764
0.76608074 -0.36353472 -0.017630136 0.013007845 0.39101237 -0.105525985 0.70078504 0.38760978
-0.3886406 0.07850727 0.09582062 0.1193471 -0.4759325 -0.39093643 -0.10744071 0.08113158
-0.09346267 -0.17522319 -0.3432921 -0.14512917 0.09235122 0.26185375 0.18395887 0.1842086
00000000: 0b1e bf3e f332 173e 7273 dfbe 4beb 53be
00000010: 6c82 8cbf 42cf 453e 5dee dfbe 39f4 cebe
00000020: afcf 1fbe dddb 893e b698 32bf 8831 133f
00000030: bdaf 02be 1f7f 96be 1e54 333e e846 f6be
00000040: 829c 063f 9979 953e 4b01 fdbe 81ee eb3e
00000050: a800 763d bc98 353d 5193 963e 21cd a73d
00000060: a068 8d3c ec92 9e3e b75a d8bd 9bce 6f3d
00000070: a1f9 bcbd 753b 973d d8ec 5b3e 7e9b 703f
00000080: 472c 83be 11d7 843e 517f 5e3e 781e 55be
00000090: ee00 6abf 0fde b6be 587b e8be 8420 c3be
000000a0: 2eb2 e53e 868f 92be d594 743f d292 8ebe
000000b0: 1bc9 e83b 916a 2abe 2641 ddbe 4a6b bf3f
000000c0: 50ab 3fbd 6e55 443e 8904 543d 7afb 09be
000000d0: f711 bcbe 7603 4fbe 52ae acbb e3bd 81bf
000000e0: 2287 dcbd 11f2 2a3f 1c43 25bd 7108 a83e
000000f0: 303d 1c3f d4c7 09bf 2da0 023f bb61 b83e
00000100: 25a5 643f 906c a8be fc5a 24bf ae97 f13e
00000110: 0698 cfbd d667 563e 33a1 97be e994 7e3f
00000120: 4d8f d93e 3043 3ebf cf3c 413e c1bd 4c3d
00000130: bbef 8a3e 93c2 acbe 5867 07bd ceb7 77bc
00000140: 40d8 66bf e9f6 36be c2f6 1b3f a30e aa3e
00000150: 2873 a4bd 527e 683e ea5d 653e 8744 0c3e
00000160: 4926 213f cf77 8abe 2677 9b3e 9bcf eabe
00000170: d286 d63d cf39 963e 74a2 06be 174c 36be
00000180: 8043 eb3d 041f d53d b813 59bf 7c35 e3be
00000190: 8024 bd3e 4e81 543e f322 843e 8c4e 8d3e
000001a0: e193 02be abdd 1bbe bfc8 fe3e b0a8 643e
000001b0: f6da 32bf b689 8abf 20da 813d e473 c03d
000001c0: 8bdb 91bf 81e2 cbbe 2f0f f43e 38cd 2b3f
000001d0: 8977 ad3e 8f05 9f3d 9295 b0bf 2c4b 33be
000001e0: 3ac8 e8be 2b94 cbbd 940b 2d3f c2f8 02bd
000001f0: fa7b b53f 3ac4 693e e92b 9c3e c5c1 febe
00000200: a8c6 c9be 1004 47be 5451 c13d 6939 7b3d
00000210: d694 8cbe a793 2ebf ea7a 7cbf 39f2 23be
00000220: fffe fa3e 6d8a 873e 1969 a53d 1501 593f
00000230: 3fe1 7d3f 945c edbd 4d1e 8a3f 42b9 03bf
00000240: 4e3b 04bf 4bda 5c3f 0504 433f c547 403f
00000250: 5eb7 453e 773b 49bd e7d6 0f3d ba9f acbe
00000260: 94f1 5e3e e745 0540 39d7 a03e 35b6 42bf
00000270: a755 cb3e 73b1 78be d236 35be 8d20 24bf
00000280: 0a50 343e a918 43be 3cd8 8a3e 4ec2 b2be
00000290: 8cf5 943e 8724 08bf 19ed 443f ee8c ac3e
000002a0: 54a9 123c 027b abbe 8554 fb3e 549f e3be
000002b0: 39b6 ff3e c406 35bd 1525 81bf 90a2 4f3f
000002c0: 8f53 213f 2db1 27be c164 9c3e 921a 153e
000002d0: 093a 2bbe 4c28 eb3e b950 62bd 827f d7be
000002e0: 1334 9cbf 8282 75be 345e 0e3f 5183 473e
000002f0: 7872 f2bc 8e46 f13d 8dce 4b3e 7308 123e
00000300: cc3c 073e 0be9 a23e 7c0d cbbf e90c 38be
00000310: e19c 083f 1c72 8abd 3072 7fbe f2d9 06bf
00000320: 3cb7 c33e 32e8 a63e a7c3 81bf b360 8fbd
00000330: 425d 31be cf0e 3bbd fb29 9f3c e21c aa3e
00000340: 6251 20be dc58 0d3f 416d d73e 4bdf b3bf
00000350: 5fde 96be b40c 28bf 5a8e f83d 1dea ec3d
00000360: 432e 223f 7db2 023e 9443 0e3f 0f2e 4cbd
00000370: 5f34 34be 9a7c 593e 1d2f 3f3e bbba 1fbf
00000380: 4346 66bd ad47 d2be 55e2 ae3e 92aa e9be
00000390: 6396 86bd 0ff9 9cbe bf0c 573e e52e 6c3e
000003a0: de1d 443f 3921 babe 136d 90bc db1e 553c
000003b0: c632 c83e 021e d8bd a666 333f ca74 c63e
000003c0: e7fb c6be 6bc8 a03d 9a3d c43d 416c f43d
000003d0: 6dad f3be d228 c8be e009 dcbd 5028 a63d
000003e0: 5b69 bfbd b56d 33be fbc3 afbe be9c 14be
000003f0: a322 bd3d b211 863e b75f 3c3e 2ea1 3c3e

encoder.sparse2.bias f4 [30]
0.81706446 1.5434444 0.09537575 -2.027688 -3.3349447 -4.423471 -0.39338523 -2.4682019
-4.502831 1.8719307 -3.9426322 0.4820773 6.640765 0.25888228 -1.7091144 3.0933847
-0.44504672 -0.06564275 -1.6995081 0.14294545 -2.0798028 0.05860106 0.9662323 2.4397163
0.6049196 0.27078447 1.9270388 2.949198 -0.40568447 3.2520223
00000000: 232b 513f 968f c53f 5c54 c33d a4c5 01c0
00000010: bc6f 55c0 138d 8dc0 ca69 c9be 05f7 1dc0
00000020: 3117 90c0 6d9b ef3f 1654 7cc0 d6d2 f63e
00000030: 2681 d440 388c 843e 43c4 dabf 04fa 4540
00000040: 2add e3be b56f 86bd 7b89 d9bf 4b60 123e
00000050: 7d1b 05c0 aa07 703d 005b 773f 5024 1c40
00000060: 03dc 1a3f 43a4 8a3e 35a9 f63f a9bf 3c40
00000070: e0b5 cfbe 2221 5040

decoder.fc1.weight f4 [52, 30]
0.53678215 0.30084926 -0.19580552 0.34963563 0.25863177 0.26454517 0.28038087 0.0746083
0.07525795 -0.12924585 -0.42970178 0.10294397 0.59771085 0.40496352 -0.23562995 -1.3440337
-0.24361631 -0.6886439 -0.30770773 -0.45505768 -1.0212326 0.21155107 -0.23650469 -0.426487
-0.4334393 0.33062795 0.22276017 0.62181884 -0.07782423 0.06469869 -0.30326062 -0.03818703
-0.9076054 0.15221778 0.6116266 -0.0064251195 -0.12755103 -0.46774435 0.13857664 -0.22434609
0.1725647 -0.3598884 0.21606462 0.46860394 0.056530327 -0.4271117 -0.1743451 -0.58968145
0.65476406 0.13281618 0.55746347 0.019974714 -0.12501569 -0.094763264 0.36844912 0.14877048
-0.2556428 0.23662788 -0.06758133 0.10630927 0.2606585 -0.55527407 0.121041514 -0.2858918
0.28608295 0.2393556 -0.7168124 1.006793 -0.039390847 -0.26725727 -0.21256682 -0.24847005
-0.21691804 -0.11633381 -0.2608118 -0.10660727 -0.3921802 -0.09278013 -0.23603979 -0.7891277
0.06885255 0.7689237 -0.07110324 -0.3902649 -0.35333297 0.53317404 0.291203 -0.10691666
-0.21478745 -0.22121625 -0.0417885 0.053180803 0.8490131 -0.20588033 0.05696216 -0.7034375
0.36421546 0.3635502 0.0017746792 -0.014850809 0.08831702 -0.0580197 0.21106374 -0.49569812
0.035377286 0.400487 -0.57269454 0.5186079 0.14813657 -0.10886185 0.04113974 -0.41828725
0.19922668 0.72572064 0.14097238 -0.70324486 -0.21472609 -0.4343329 0.2560067 0.015597966
-0.04436523 -0.2826888 0.39274707 -0.49671784 -0.27457187 0.45835045 -0.5998815 -0.1886725
-0.48625132 0.05836097 0.19911663 0.25566953 -0.6573198 -0.30790454 0.103717625 1.1172342
0.58270246 0.688332 0.38340476 0.42682418 0.73355865 -0.45600006 0.22347534 -0.3712933
0.6347281 -0.36483172 0.18150091 -0.4668705 -0.47330812 -0.26076183 -0.10863699 0.46566692
0.02601567 0.20629133 0.2862378 -0.6539802 0.53651553 -0.12296316 0.10454956 -0.049813837
0.15857834 -0.29310966 0.5964122 0.5219593 -0.06873028 -0.83133453 -0.51885736 -0.6647316
-0.022083396 0.2184032 -0.20485972 0.34521595 -0.27757782 0.27952993 -0.93199056 -0.11572257
-0.16981487 0.6651241 0.231565 -0.182954 -0.24977021 0.3488262 -0.33797744 -0.13440733
0.29429322 0.45408526 0.4877745 -0.10406971 -0.39831534 -0.18688565 0.069772966 0.0027009312
0.07516121 0.29484555 -0.11770759 1.0581597 0.7165549 0.65748835 0.33527628 0.4747941
0.7733451 -0.19320083 -0.02492142 0.2909814 0.38137102 0.38316518 -0.12046162 -0.42071998
0.12501149 -0.102147855 0.2337089 0.13469386 -0.3302565 -0.21866584 -0.3117996 -0.14418794
-0.21630779 -0.48687357 -0.5247158 0.037192456 0.23429269 0.15083493 -0.22006857 0.7873158
0.52519435 0.18305556 -0.1610696 0.8311752 -0.0069186394 0.8079483 0.168958 0.0388645
0.12365531 0.150411 0.16419947 -0.24361688 0.07485918 0.398303 0.01890277 0.13992685
-0.32738516 0.2320356 -0.7728813 0.12120147 0.24495645 -0.62248224 0.11680647 0.5038176
0.009316731 -0.60859764 -0.4181141 -0.16429377 0.41231376 0.1933407 -0.1073672 -1.300832
00000000: 8e6a 093f ea08 9a3e 3e81 48be 7103 b33e
00000010: 626b 843e 7772 873e 158e 8f3e 3dcc 983d
00000020: d720 9a3d 0659 04be df01 dcbe 4ad4 d23d
00000030: 9403 193f 6157 cf3e fa48 71be 4c09 acbf
00000040: 8e76 79be f74a 30bf de8b 9dbe 52fd e8be
00000050: c0b7 82bf d8a0 583e 492e 72be 815c dabe
00000060: c2eb ddbe 1148 a93e 3e1b 643e 852f 1f3f
00000070: 4f62 9fbd bf80 843d fa44 9bbe 016a 1cbd
00000080: d458 68bf fade 1b3e 9093 1c3f cf89 d2bb
00000090: bd9c 02be 307c efbe 09e7 0d3e fbba 65be
000000a0: cdb4 303e 4b43 b8be 0b40 5d3e dbec ef3e
000000b0: 588c 673d 62ae dabe 8687 32be 5df5 16bf
000000c0: 9e9e 273f f700 083e edb5 0e3f 03a2 a33c
000000d0: 1d04 00be 3e13 c2bd 5da5 bc3e 4a57 183e
000000e0: 9de3 82be 944e 723e 1568 8abd adb8 d93d
000000f0: 0875 853e 7126 0ebf 9de4 f73d 6960 92be
00000100: 7779 923e a219 753e 0481 37bf 98de 803f
00000110: 4c58 21bd f2d5 88be 1eab 59be ef6e 7ebe
00000120: c31f 5ebe 6c40 eebd 2089 85be ea54 dabd
00000130: d8cb c8be 8203 bebd 6ab4 71be 4604 4abf
00000140: 9102 8d3d 2fd8 443f 939e 91bd cdd0 c7be
00000150: 0fe8 b4be 187e 083f 8f18 953e 1ff7 dabd
00000160: 3ef1 5bbe 8386 62be 6b2a 2bbd 1dd4 593d
00000170: ec58 593f 4bd2 52be 2751 693d 7b14 34bf
00000180: 737a ba3e 4023 ba3e 5a9c e83a cf50 73bc
00000190: 8edf b43d 11a6 6dbd 1821 583e 25cc fdbe
000001a0: c6e7 103d a20c cd3e 1c9c 12bf 7dc3 043f
000001b0: 1db1 173e f6f2 debd 2582 283d bf29 d6be
000001c0: 1402 4c3e d4c8 393f 105b 103e db07 34bf
000001d0: 28e1 5bbe e260 debe 4f13 833e 9c8e 7f3c
000001e0: 51b8 35bd 96bc 90be 2516 c93e cd51 febe
000001f0: af94 8cbe e9ac ea3e d591 19bf 5d33 41be
00000200: eff5 f8be ea0b 6f3d 3be5 4b3e 1ee7 823e
00000210: 1c46 28bf aaa5 9dbe e869 d43d 8801 8f3f
00000220: fd2b 153f 8736 303f a14d c43e b388 da3e
00000230: 80ca 3b3f d778 e9be b8d6 643e 281a bebe
00000240: 8a7d 223f 39cb babe 60db 393e a609 efbe
00000250: 7155 f2be 9382 85be 127d debd e56b ee3e
00000260: d01e d53c 093e 533e c38d 923e 3f6b 27bf
00000270: 1559 093f 1cd4 fbbd 141e d63d 9809 4cbd
00000280: 5c62 223e 7812 96be 78ae 183f 209f 053f
00000290: 76c2 8cbd 57d2 54bf d6d3 04bf da2b 2abf
000002a0: 3de8 b4bc 17a5 5f3e bfc6 51be 25c0 b03e
000002b0: ae1e 8ebe 8c1e 8f3e ef96 6ebf f4ff ecbd
000002c0: f3e3 2dbe 9345 2a3f 601f 6d3e 4b58 3bbe
000002d0: c3c3 7fbe 5999 b23e 610b adbe 13a2 09be
000002e0: 9aad 963e dd7d e83e 94bd f93e 8022 d5bd
000002f0: fdef cbbe f45e 3fbe 21e5 8e3d 1b02 313b
00000300: 1fee 993d fff5 963e ad10 f1bd c771 873f
00000310: 2470 373f 2851 283f 55a9 ab3e 3618 f33e
00000320: f2f9 453f 70d6 45be 0128 ccbc 84fb 943e
00000330: 1043 c33e 3a2e c43e 95b4 f6bd 9c68 d7be
00000340: 0303 003e e532 d1bd 6351 6f3e 30ed 093e
00000350: 6117 a9be f0e9 5fbe 32a4 9fbe 01a6 13be
00000360: ca7f 5dbe 7e47 f9be c653 06bf 1e57 183d
00000370: 6cea 6f3e 7974 1a3e a859 61be 878d 493f
00000380: 2373 063f eb72 3b3e 6eef 24be e6c7 543f
00000390: c1b5 e2bb b3d5 4e3f 5303 2d3e 6230 1f3d
000003a0: ff3e fd3d 5705 1a3e e823 283e b476 79be
000003b0: c54f 993d 5fee cb3e fbd9 9a3c fc48 0f3e
000003c0: 079f a7be be9a 6d3e 8ddb 45bf 7a38 f83d
000003d0: ddd5 7a3e ff5a 1fbf 3b38 ef3d 31fa 003f
000003e0: 34a5 183c 0ecd 1bbf 0d13 d6be a03c 28be
000003f0: ca1a d33e 1bfb 453e 56e3 dbbd aa81 a6bf

decoder.fc1.bias f4 [52]
1.4225987 1.8395765 1.185666 -2.057405 -0.7039033 1.3725487 -0.75076073 -1.5916946
1.3775516 -1.5159645 -1.2428067 -1.3631194 -0.707918 -0.8886935 0.0403314 1.2129968
1.4362742 -0.82822204 1.2250149 1.2017751 -0.859598 -1.4319588 -0.47391135 1.4475371
0.87965477 -1.5054106 -1.5261549 -1.5506105 0.96488583 0.53293407 1.5457977 -0.020497082
-1.4091663 0.5859356 0.18173921 1.6089782 -1.0402051 -0.68581194 -1.0770556 1.5940837
1.3295932 -1.7821425 -0.9773449 0.28263226 -1.3703101 1.4141345 1.7228119 0.53089726
-0.48030114 -1.3596559 -1.4020319 -0.8211097
00000000: b717 b63f 3e77 eb3f e7c3 973f 86ac 03c0
00000010: 0233 34bf adaf af3f db31 40bf a6bc cbbf
00000020: 9c53 b03f 200b c2bf 4a14 9fbf b27a aebf
00000030: 1d3a 35bf 6b81 63bf 8a32 253d 7b43 9b3f
00000040: d5d7 b73f 5c06 54bf 4acd 9c3f c4d3 993f
00000050: 9d0e 5cbf 6d4a b7bf 82a4 f2be e548 b93f
00000060: 0e31 613f 4bb1 c0bf 0b59 c3bf 687a c6bf
00000070: c202 773f 5e6e 083f b3dc c53f 7fe9 a7bc
00000080: 905f b4bf e0ff 153f d819 3a3e fff2 cd3f
00000090: 7125 85bf 5f91 2fbf f5dc 89bf ef0a cc3f
000000a0: 1c30 aa3f 3f1d e4bf 4633 7abf 2db5 903e
000000b0: 5266 afbf 5c02 b53f 1a85 dc3f e2e8 073f
000000c0: 08ea f5be 3409 aebf c875 b3bf 3f34 52bf

decoder.fc2.weight f4 [52, 52]
0.12114044 0.9573681 -0.5893566 -0.18603969 -0.39348522 0.43165925 -0.27168426 -0.24706602
-0.33973 0.13742767 -0.7601825 0.68661135 0.5359204 -0.77387744 -0.13290349 -0.21485531
0.13302697 0.35689864 -1.1053908 -0.56652594 0.33318618 0.3926268 -0.26432756 -1.395934
1.0934753 -0.26580915 -0.56137747 -0.19306351 -0.5224332 0.11216776 0.5390895 -0.09285349
-0.55913776 -0.20746282 0.7455106 0.5993301 0.6966804 0.16989426 0.18554205 0.9539476
0.12222142 -0.05408758 -0.082163334 0.52702284 0.140732 -0.7837011 0.05289676 -0.009942895
0.34495372 0.82907516 0.24926338 0.44498795 -0.004382926 -0.17364544 0.17736346 0.005224934
0.06428851 -0.055028588 0.045631226 -0.2010438 -0.28454942 0.14103284 -0.0785321 0.0935374
-0.027794315 -0.0869557 0.2151835 -0.039577242 0.0039076484 0.052500915 0.06380628 0.29445294
-0.16383159 0.032930393 -0.10282055 -0.09984282 0.019373255 -0.19361977 0.036781657 -0.04358265
0.050817702 0.070900746 0.014089371 0.13899046 -0.15936156 -0.20218559 -0.1262711 0.12972963
-0.22566798 0.15702112 -0.010361654 -0.054628346 0.055185623 0.28704908 -0.097341634 -0.046645448
-0.15679803 -0.27888048 -0.12657279 0.005786969 -0.021019222 -0.114946075 0.03237802 0.11660796
0.17102726 -0.7681687 0.08931173 0.31474715 -0.039984565 0.21164581 -0.30289185 -0.34018674
-0.6567338 0.41748515 0.08621926 0.63460094 -0.14717804 -0.04882351 0.5257219 -0.074466914
-0.11932257 -0.13074985 -0.16566277 0.8327519 -0.48999342 -0.1848275 -0.16339272 -0.23945431
0.39165807 -0.50636965 0.41195306 0.23657762 0.04453557 -0.102257624 -0.27858657 -0.17108692
-0.57915235 -0.34652504 -0.49763462 0.11677255 -0.35328284 0.097607374 -0.64721036 -0.15840526
0.25408137 0.14131826 0.089956924 0.045793466 0.17806076 -0.6309444 -0.38045862 -0.077444196
0.043390986 -0.21588111 -0.252078 0.27437407 0.24302675 -0.79716456 -0.057363346 -0.13880254
0.59315753 -0.86364245 -0.2672056 -0.123521894 -0.16304034 -0.17673175 0.5142703 0.17711335
0.36473933 0.8518086 -0.3684553 0.38662526 0.5013985 -0.35586748 0.94791734 0.8736331
-0.48437992 -0.07361177 0.76180273 1.0739616 -0.595909 -0.40005305 0.71848553 0.14978264
0.84025824 -0.18406762 -0.30816692 0.97914696 -0.21731752 -0.35091874 -0.40717566 0.05543432
-0.7808622 0.3397941 -0.65144926 -0.57282335 0.49845517 0.46122992 -0.6894327 -0.85147464
-0.5179694 -0.4822948 -0.47689617 -0.3318085 -0.13526508 -0.7125276 -0.8445428 -0.07457156
0.14830914 -0.061648484 0.068473764 -0.0014597148 -0.11518503 -0.0054649855 0.022944126 -0.14281079
0.12645456 -0.14272586 0.05368622 0.047857102 0.1262366 0.06582975 -0.1196817 -0.006928057
-0.03956066 0.038162414 -0.014122562 0.111245826 0.06143678 -0.05465709 -0.10104674 0.097717755
0.04943962 -0.008440823 0.116020225 -0.09137697 -0.13572043 -0.041746814 -0.11271337 0.14414047
0.101307854 0.014544999 0.118247174 -0.07522536 0.005481831 -0.009890945 0.031305287 0.111679785
0.04466055 0.058903024 0.10638957 0.008375247 0.108898334 0.053302597 -0.04405618 0.033451
00000000: 7b18 f83d 1316 753f 13e0 16bf 3081 3ebe
00000010: e576 c9be 7102 dd3e 331a 8bbe e0fe 7cbe
00000020: 17f1 adbe d7b9 0c3e 529b 42bf c3c5 2f3f
00000030: 1432 093f d51c 46bf da17 08be 0803 5cbe
00000040: 3938 083e 6bbb b63e 727d 8dbf d807 11bf
00000050: 6197 aa3e 6106 c93e f155 87be f7ad b2bf
00000060: 00f7 8b3f 2318 88be 6fb6 0fbf 71b2 45be
00000070: 2fbe 05bf 36b8 e53d c501 0a3f f829 bebd
00000080: a723 0fbf 2271 54be c8d9 3e3f b36d 193f
00000090: a659 323f c3f8 2d3e bcfe 3d3e e935 743f
000000a0: 394f fa3d f08a 5dbd 4045 a8bd f8ea 063f
000000b0: 0d1c 103e a3a0 48bf 46aa 583d 86e7 22bc
000000c0: c69d b03e 453e 543f e63e 7f3e 76d5 e33e
000000d0: a69e 8fbb 1cd0 31be c49e 353e ec35 ab3b
000000e0: b2a9 833d a865 61bd cfe7 3a3d 6dde 4dbe
000000f0: 76b0 91be ea6a 103e 70d5 a0bd 8990 bf3d
00000100: e7b0 e3bc d415 b2bd 1059 5c3e bf1b 22bd
00000110: bb0b 803b 330b 573d deac 823d 89c2 963e
00000120: 78c3 27be 05e2 063d 9593 d2bd 647a ccbd
00000130: a9b4 9e3c 4344 46be 5da8 163d b983 32bd
00000140: 3926 503d 6934 913d 1bd7 663c 8453 0e3e
00000150: ad2f 23be bd09 4fbe 364d 01be d8d7 043e
00000160: 8215 67be 25ca 203e edc3 29bc f9c1 5fbd
00000170: 520a 623d 19f8 923e 0d5b c7bd 4c0f 3fbd
00000180: aa8f 20be 6cc9 8ebe 4c9c 01be 9da0 bd3b
00000190: 8130 acbc d968 ebbd d19e 043d 27d0 ee3d
000001a0: c521 2f3e b4a6 44bf 11e9 b63d 8a26 a13e
000001b0: dbc6 23bd aeb9 583e a414 9bbe f52c aebe
000001c0: b51f 28bf 9dc0 d53e b993 b03d 3575 223f
000001d0: d7b5 16be 29fb 47bd b695 063f 1c82 98bd
000001e0: 645f f4bd 4ae3 05be 80a3 29be 3b2f 553f
000001f0: 6be0 fabe 6c43 3dbe 6c50 27be 8333 75be
00000200: 6887 c83e 71a1 01bf 83eb d23e 6741 723e
00000210: ee6a 363d 726c d1bd e6a2 8ebe 6931 2fbe
00000220: 5443 14bf bb6b b1be f7c9 febe 7226 ef3d
00000230: 7de1 b4be 60e6 c73d 94af 25bf fd34 22be
00000240: f416 823e bcb5 103e 563b b83d ee91 3b3d
00000250: 8f55 363e 9285 21bf 79cb c2be 109b 9ebd
00000260: bfba 313d f00f 5dbe 5e10 81be c27a 8c3e
00000270: 01dc 783e fa12 4cbf d4f5 6abd 4122 0ebe
00000280: 2cd9 173f ac17 5dbf 2ccf 88be 0cf9 fcbd
00000290: 0cf4 26be 2bf9 34be 38a7 033f 345d 353e
000002a0: 1dbf ba3e 2110 5a3f 2ca6 bcbe bff3 c53e
000002b0: a75b 003f 4334 b6be b6aa 723f 6ba6 5f3f
000002c0: a500 f8be c5c1 96bd 8105 433f 9377 893f
000002d0: 7e8d 18bf c1d3 ccbe abee 373f 9f60 193e
000002e0: 2a1b 573f 397c 3cbe 0ec8 9dbe 60a9 7a3f
000002f0: 7c88 5ebe 9fab b3be 5479 d0be 190f 633d
00000300: 96e6 47bf 7ef9 ad3e 61c5 26bf 8da4 12bf
00000310: 8435 ff3e 5426 ec3e a97e 30bf 3efa 59bf
00000320: a599 04bf 58ef f6be bc2b f4be cee2 a9be
00000330: ee82 0abe 3568 36bf f533 58bf f9b8 98bd
00000340: 5ade 173e 1f83 7cbd f93b 8c3d e753 bfba
00000350: 21e6 ebbd 9f13 b3bb 52f5 bb3c fe3c 12be
00000360: 4e7d 013e ba26 12be 15e6 5b3d cf05 443d
00000370: 2b44 013e bfd1 863d ae1b f5bd c104 e3bb
00000380: 5c0a 22bd 3150 1c3d 5162 67bc dad4 e33d
00000390: 22a5 7b3d 1de0 5fbd 98f1 cebd 3f20 c83d
000003a0: 3381 4a3d 614b 0abc 039c ed3d d923 bbbd
000003b0: 4cfa 0abe b5fe 2abd 44d6 e6bd 8f99 133e
000003c0: 7e7a cf3d 264e 6e3c 932b f23d c10f 9abd
000003d0: eea0 b33b a10d 22bc f939 003d 5fb8 e43d
000003e0: fbed 363d 4c44 713d c6e2 d93d 5538 093c
000003f0: 1706 df3d d353 5a3d 4174 34bd ea03 093d

decoder.fc2.bias f4 [52]
0.5611579 0.03318419 -0.11998105 0.21896924 -0.08763974 0.25256938 1.7149365 -0.31538552
0.030430406 0.53434974 -1.147922 0.0105223935 1.5724573 -0.02378298 0.0139171975 2.1072974
0.17654553 0.8439722 1.1986823 -0.72720665 -1.8054264 -0.69832623 -0.48484096 -0.30439818
0.9921886 -0.020123824 -0.20642927 -0.78598136 -0.7654659 -0.23687498 1.0877393 0.1522417
-0.18450806 -1.2009811 -0.7308789 -0.36630365 -0.12680872 0.1765513 -0.017386056 -0.07282503
-0.105515346 1.8057499 1.6282941 1.4950007 1.3537601 -1.3583293 -0.4194824 -0.07308378
0.0764187 0.4415442 1.2420028 1.329245
00000000: 0ba8 0f3f 25ec 073d a0b8 f5bd 7939 603e
00000010: 777c b3bd c650 813e 0a83 db3f 367a a1be
00000020: 3049 f93c 25cb 083f 1cef 92bf 1e66 2c3c
00000030: 4846 c93f 86d4 c2bc f504 643c f6dd 0640
00000040: 5ac8 343e 900e 583f 6c6e 993f 372a 3abf
00000050: 3618 e7bf 82c5 32bf 133d f8be 14da 9bbe
00000060: 1200 7e3f b8da a4bc 3262 53be 1336 49bf
00000070: 93f5 43bf 5b8f 72be 0b3b 8b3f 40e5 1b3e
00000080: aeef 3cbe c0b9 99bf e11a 3bbf 278c bbbe
00000090: 25da 01be ddc9 343e 346d 8ebc 4a25 95bd
000000a0: 6e18 d8bd d022 e73f f16b d03f 2f5c bf3f
000000b0: 0348 ad3f bcdd adbf 66c6 d6be f3ac 95bd
000000c0: 6881 9c3d 1512 e23e f3f9 9e3f b324 aa3f

reg.weight f4 [22, 30]
0.07498703 0.13347328 0.20976591 0.21782425 0.30683845 0.4818396 0.016836872 -0.08437224
0.4443919 -0.17035581 0.3456933 -0.311861 -0.5096835 -0.25105467 0.020397337 -0.10928277
0.002918983 -0.071170196 -0.19300452 -0.13943404 0.17966701 0.1748216 0.2107529 -0.31675833
-0.031744234 -0.42142388 -0.19603565 -0.30109024 0.14897484 0.042461876 0.30031922 -0.56888914
-0.31351748 1.0581644 -0.826988 -0.47246236 0.5709335 -0.3900437 0.7350591 -0.5285907
-0.29963064 0.92071986 0.5742469 -0.9481997 0.74979216 0.6286922 0.30333963 -0.361684
0.64041936 -0.07244736 -0.64110565 -1.0403571 -0.16015516 -0.54003614 -0.30170557 0.6076982
-0.8515688 0.4057351 0.2796072 0.7356961 -0.9553005 0.35821536 0.7388641 -0.4471155
0.46029967 -0.5706255 0.80432594 -0.68875104 -0.75970244 0.92005193 0.79447675 -0.44247115
0.13554998 -1.045236 -0.2896852 0.4975005 0.9449452 0.014118931 0.99797916 -0.10321806
1.0190231 0.07061432 -0.70340896 0.91228724 0.25334585 -0.6663422 -0.7025067 -0.42900056
-0.44465837 -0.032975566 0.26622903 -0.20671888 -0.14352937 -0.28618976 0.30782017 0.41094837
0.09151843 0.1820039 0.2213477 -0.06783814 0.35981023 -0.41825116 -0.62574226 0.067456976
-0.30592385 -0.12963898 -0.12461824 -0.1117461 -0.14547992 0.14032522 -0.22241448 0.20800328
0.2621034 -0.21487276 -0.14502758 -0.39675933 0.07774311 -0.291662 0.07880184 -0.18207315
0.39368317 -0.46715719 -0.19603229 0.45501062 0.3438336 -0.16597469 -0.36613202 -0.40107873
0.6241363 -0.2743389 0.3955039 -0.4302909 0.18957365 0.41769868 -0.3623798 -0.16472183
-0.3707677 0.3936074 0.30161402 -0.36382765 0.48947045 -0.15124868 -0.22555351 -0.38085118
-0.25731382 -0.05938739 0.2471997 -0.52489454 0.33815745 -0.5121329 -0.2429756 0.5306422
-0.15407833 -0.230871 -0.6612598 0.58238995 -0.4063382 0.0301044 0.62475586 -0.30700213
0.006706635 0.02593063 0.6489264 -0.2050263 -0.35052958 -0.16476525 -0.42512077 -0.15805978
0.31415302 0.4463249 -0.1791266 0.19053644 0.5634359 0.34734553 -0.33062613 -0.35638246
0.4516579 -0.099279046 0.35982773 0.40835127 -0.75381863 -0.7294048 -0.6793438 0.11172589
0.6992848 -0.49441555 -0.02321546 0.8943621 -0.033128332 -0.9343123 -0.7489836 1.1519471
0.57993364 -0.8132022 -0.5026181 1.0126401 1.0818635 0.71805376 0.5525712 -0.568695
1.5081239 -0.39829296 0.23786183 -0.48883078 2.296896 0.9982583 0.4414546 -0.1387265
0.71940315 0.9435034 -0.5844706 0.59768736 0.013255834 -0.48158032 0.20474742 0.53890663
0.4994637 -0.4084342 -0.38028735 -0.5605754 -0.51156783 0.26791555 0.50176305 0.41295397
-0.35747623 0.029298365 -0.26677024 0.27810803 -0.45343655 -0.15076074 -0.47123924 -0.16519022
0.5210183 0.40194318 -0.07635317 0.9713086 -0.12585603 -0.16449083 0.2576614 -0.489535
0.5239562 -0.38466024 0.15877108 -0.4041571 -0.8573436 -1.0318966 0.47898304 -0.63537157
-0.9080368 -0.45572 -0.56562656 -0.15123245 0.8941528 -0.14571396 0.12517676 -0.38803333
00000000: cd92 993d 38ad 083e e0cc 563e 520d 5f3e
00000010: ee19 9d3e aeb3 f63e 7bed 893c 5acb acbd
00000020: 5687 e33e c171 2ebe b6fe b03e 3fac 9fbe
00000030: 9e7a 02bf 3d8a 80be 5118 a73c a5cf dfbd
00000040: 694c 3f3b aec1 91bd faa2 45be ccc7 0ebe
00000050: a1fa 373e 6f04 333e 9ccf 573e 262e a2be
00000060: 3e06 02bd dfc4 d7be 92bd 48be 8028 9abe
00000070: dc8c 183e 81ec 2d3d 71c3 993e b8a2 11bf
00000080: 5d85 a0be ee71 873f 7cb5 53bf 96e6 f1be
00000090: b328 123f cfb3 c7be d52c 3c3f b851 07bf
000000a0: 3069 99be 4cb4 6b3f d801 133f 37bd 72bf
000000b0: 61f2 3f3f f9f1 203f 554f 9b3e a52e b9be
000000c0: 86f2 233f 485f 94bd 801f 24bf 6c2a 85bf
000000d0: b7ff 23be cf3f 0abf 2779 9abe 1c92 1b3f
000000e0: 6a00 5abf 83bc cf3e ad28 8f3e 9456 3c3f
000000f0: 938e 74bf 0168 b73e 3326 3d3f 53ec e4be
00000100: 66ac eb3e 8314 12bf 4ee8 4d3f fd51 30bf
00000110: dc7b 42bf 8688 6b3f d462 4b3f 948b e2be
00000120: 9dcd 0a3e 4bca 85bf 9e51 94be 63b8 fe3e
00000130: eee7 713f 1753 673c 907b 7f3f fe63 d3bd
00000140: 596f 823f 3e9e 903d 9c12 34bf a88b 693f
00000150: 8cb6 813e 6795 2abf 7bd7 33bf f6a5 dbbe
00000160: 43aa e3be 6311 07bd 2c4f 883e 1dae 53be
00000170: 5df9 12be 7787 92be 9b9a 9d3e d367 d23e
00000180: 046e bb3d 3b5f 3a3e f9a8 623e b9ee 8abd
00000190: 0c39 b83e 0425 d6be a530 20bf e226 8a3d
000001a0: 0da2 9cbe 15c0 04be d937 ffbd 24db e4bd
000001b0: b0f8 14be 6ab1 0f3e 9fc0 63be d0fe 543e
000001c0: 6b32 863e 9b07 5cbe 1c82 14be 0a24 cbbe
000001d0: c837 9f3d b954 95be dc62 a13d 6271 3abe
000001e0: d790 c93e 3a2f efbe b0bc 48be 27f7 e83e
000001f0: f50a b03e 45f5 29be a875 bbbe 315a cdbe
00000200: 66c7 1f3f 2676 8cbe 7d7f ca3e 174f dcbe
00000210: 981f 423e 9adc d53e d889 b9be d7ac 28be
00000220: 44d5 bdbe e986 c93e 276d 9a3e 9e47 babe
00000230: df9b fa3e efe0 1abe 80f7 66be edfe c2be
00000240: a3be 83be 3140 73bd eb21 7d3e 7d5f 06bf
00000250: f922 ad3e 241b 03bf 98ce 78be 2bd8 073f
00000260: b6c6 1dbe 7369 6cbe 5248 29bf 8217 153f
00000270: 900b d0be 819d f63c 00f0 1f3f 622f 9dbe
00000280: 55c3 db3b 796c d43c 0a20 263f 6af2 51be
00000290: 9d78 b3be 39b8 28be 6ea9 d9be 6cda 21be
000002a0: aad8 a03e b384 e43e f76c 37be fc1b 433e
000002b0: 563d 103f 46d7 b13e d447 a9be c377 b6be
000002c0: b43f e73e d052 cbbd 573b b83e 6b13 d13e
000002d0: 42fa 40bf 46ba 3abf 7ae9 2dbf 8bd0 e43d
000002e0: 5404 333f 0924 fdbe 592e bebc eaf4 643f
000002f0: 93b1 07bd 172f 6fbf 64bd 3fbf 0173 933f
00000300: 8876 143f 052e 50bf 94ab 00bf 319e 813f
00000310: 817a 8a3f 5fd2 373f 4e75 0d3f ff95 11bf
00000320: 340a c13f 0eed cbbe 0d92 733e 0748 fabe
00000330: 5800 1340 db8d 7f3f 5606 e23e 520e 0ebe
00000340: ce2a 383f 7089 713f de9f 15bf 0a02 193f
00000350: ff2e 593c b291 f6be 4fa9 513e c9f5 093f
00000360: b5b9 ff3e 4a1e d1be 06b5 c2be df81 0fbf
00000370: 1cf6 02bf 3a2c 893e 8b73 003f b46e d33e
00000380: 2007 b7be 2003 f03c 1c96 88be 2d64 8e3e
00000390: d628 e8be 0661 1abe 4546 f1be a027 29be
000003a0: 7561 053f 7fcb cd3e 0d5f 9cbd aea7 783f
000003b0: 67e0 00be 4970 28be 32ec 833e 55a4 fabe
000003c0: fe21 063f 30f2 c4be e394 223e aeed cebe
000003d0: df7a 5bbf 3015 84bf 443d f53e b6a7 22bf
000003e0: 1a75 68bf 2254 e9be e7cc 10bf aedc 1abe
000003f0: 33e7 643f 0a36 15be 562e 003e 4eac c6be

reg.bias f4 [22]
1.8207151 -1.4828086 -2.034079 0.42999193 -0.14999461 0.39577848 -2.0251813 0.4027936
-0.38554952 0.25638986 -0.1697999 0.21653204 0.21933044 1.0208695 -0.21289241 0.6646696
-0.07811185 0.051038288 1.2860738 -0.049664088 -0.13141337 -0.8604314
00000000: 310d e93f accc bdbf 5a2e 02c0 e727 dc3e
00000010: 3098 19be 7aa3 ca3e 929c 01c0 f63a ce3e
00000020: bf66 c5be 8845 833e 06e0 2dbe 93ba 5d3e
00000030: 2998 603e daab 823f 7800 5abe c927 2a3f
00000040: 1bf9 9fbd 860d 513d 119e a43f 926c 4bbd
00000050: 3a91 06be 3b45 5cbf
